weights/202305181107.pth (torch, 215624 bytes, 419 tensors)

inp.pos_emb f4 [1, 64, 4]
00000000: 6d48 88bd 22b9 95bf eef8 77bf 12b8 683f
00000010: cc03 86bf 7c30 2c3f 52ae d43e f3b4 8d3c
00000020: 6b27 ff3e be5d 2f3f 54e3 4b3e d0d0 a3be
00000030: c82d aabf f5a3 293e ed5c 7fbf ff28 4fbf
00000040: 1735 32bf 84c9 233f 7f26 fdbe a1cb 0fbf
00000050: 6d06 053f a529 21be 1b3d 9fbf e281 80be
00000060: 0c78 ff3e 9b39 c4bf dbd8 11be 10da f73f
00000070: 9fb4 903e e589 40bf dbf8 07bd ff1e 6fbf
00000080: 8b43 e53e 187a 243f ae3a 933f cf40 b83f
00000090: 1dab 1b3f 2d1a 3e3f 5c40 3abe 075b 083f
000000a0: d36a ac3f d03e ab3f 4d98 aabf 5ef1 4fbf
000000b0: 3faa 33bf ddf7 63bf 5688 c43f 0c5c a53d
000000c0: 446f 0740 9656 d83e cf3e 31be 9646 42be
000000d0: 4e5b 3c3e 88ae 9a3f dcad 003d ea6a a5bf
000000e0: ce21 44bf 1ca7 99bd adde f93e 5c5a 833e
000000f0: 5f3c 4940 706c 1840 47d7 2ebf 3897 f5bf
00000100: 3797 c73e 4622 5a3f 97a7 cfbf 7c61 e93f
00000110: 7656 e1be 97d3 b53e 5cf4 91bf ba5d 6abe
00000120: 239c 67bd 6305 0bbf 98cf a6bf 6187 4bbf
00000130: d8de 1ebf 31f7 8bbe 68d9 c8be 2c22 abbf
00000140: a7a9 9cbe c433 973f 465e 23bf 6ce6 ccbd
00000150: d06e 84bf 77ff a43e 1e5c 63bd 7da5 ac3e
00000160: e1a1 50bf 39e9 a9bf 3c7e 4fbd 3e1a 3bbf
00000170: ce74 e7bf a811 373f 6c87 3abe 249d 2ebf
00000180: 3c20 e2bf d40d bcbf 1d81 b53f de77 273f
00000190: e3d5 b5bf 577d b0bd 6f5c 0abc ac9b 68be
000001a0: 2be9 efbe 1312 b43f aea4 61bf 931e 953e
000001b0: 2f78 bc3f 2821 6e3f 83e6 e43d e2bf efbf
000001c0: 729c bebe dc9f b5be 09ca 373f 1f55 8d3f
000001d0: 0b7d dabc d0a3 ebbe 515d 19be 0492 d4bf
000001e0: a69c 98bf 8e77 b93e 0f9d 5dbf d20c 933d
000001f0: a9f7 233f 50b4 ae3f ea45 11bf 9922 723f
00000200: 2256 02bf b1ef 733c 8470 033f 47ca cc3f
00000210: 137a 0fbf 7963 703f b1a3 0ebf 6a86 293f
00000220: a4c1 293e 5bf4 b03f 35eb d7be 936a c0bf
00000230: 11f9 e5bd b415 60bf 3fdd 8c3f a7c5 66be
00000240: 8f6c 81bf 180b 123f 7161 3b3f 82af 533f
00000250: 0a8d 32be 7d85 f5be c66f f83e f41e 843f
00000260: 3276 453e 5b0e d03e 2fee 89bf 467f 0840
00000270: 0774 0ac0 1da2 203e e37f 1b3f 458e 9c3f
00000280: 5b5a 69bf 6b5e ec3b 6dec dcbe d299 e13f
00000290: 85a9 7b3f 3f3d 5e3f ad08 abbf 9a23 7d3f
000002a0: 761a 82bf 4467 833f 5f92 1e3e 5847 c43e
000002b0: da5a 35bf 278f c9bf 2873 c23f 3a2c 733f
000002c0: c57c 2940 c033 69bf 1b6a 083f 1b26 a6bf
000002d0: 283a c7be 9a4d cd3f 8f8b 953f 92ce ee3d
000002e0: 7ce0 e83f 7e72 36bf 151c 4bbf 5d75 82be
000002f0: 0c4a 9a3f 4d80 c5bf 1a1c 07bf b988 8bbf
00000300: 92a0 42bf dc12 49bf 2176 57bf 02ba b33d
00000310: 49c5 a03e 06fd a73f f9a1 643f 9b45 f5bf
00000320: 2665 bf3f 66c6 c13f 2192 873a 8c4a c6be
00000330: 79c0 053f c61f 2b3e 0e7d 97bf b9d1 7cbf
00000340: 595c 583e d88c af3f 5ca7 0d3f 06eb bebf
00000350: cd2c 98bf a415 ee3e d761 31bf c801 a33f
00000360: bbd6 83bf fc10 773f c40f 4c40 6c9d df3d
00000370: c918 bf3f c239 c1bf 43a2 243f e046 1abf
00000380: d679 8c3f 1a0f a4bf 9cfa 273f 6b4d c1be
00000390: a7f8 023f 906a e4bd 6c9e ba3f 976b b13e
000003a0: fb6f 00c0 59a2 b73e 6daf f4bf b1ed a2bd
000003b0: 4790 9c3e 2d6e b33c d5d4 b4bf 715e 8f3d
000003c0: 075c 07bf 0e8d aa3e bd65 25bf f949 2040
000003d0: ba68 ea3e 31c3 5c3f ad52 6dbf 2760 babf
000003e0: 67f8 af3f 2c1d ee3f d2e6 003f 9b6c 413f
000003f0: f329 65bf 3fee 163f 0f8f 02bf 6bf5 023f
-0.06654439 -1.1697123 -0.9686421 0.9090587 -1.0469909 0.6726148 0.41539246 0.017298197
0.4983476 0.68502414 0.19910938 -0.3199525 -1.3295221 0.16566451 -0.9975117 -0.8092193
-0.6961226 0.63979363 -0.49443433 -0.5617009 0.5196293 -0.15738542 -1.2440523 -0.25099093
0.49896276 -1.533008 -0.1424288 1.9363422 0.28262803 -0.7521041 -0.03319631 -0.9340667
0.44778094 0.642488 1.1502283 1.4394778 0.60807973 0.7425869 -0.18188614 0.53263897
1.34701 1.3378544 -1.3327729 -0.8122767 -0.7018165 -0.89050084 1.5354106 0.08074197
2.116166 0.4225356 -0.17309116 -0.18972239 0.18394205 1.2084513 0.031415805 -1.2923253
-0.7661408 -0.07502577 0.488027 0.25654876 3.1443098 2.3816185 -0.6829724 -1.9186773
0.38982555 0.8520855 -1.6223019 1.8232875 -0.44011277 0.35512993 -1.1402698 -0.22887316
-0.056545388 -0.54305094 -1.3032103 -0.79503447 -0.6205878 -0.2733703 -0.39228368 -1.3369803
-0.30598184 1.1812673 -0.63815725 -0.10004887 -1.0346317 0.32226154 -0.05550777 0.33720008
-0.8149701 -1.3274299 -0.050657496 -0.7308692 -1.8082521 0.71511316 -0.18215722 -0.6820853
-1.7666087 -1.469172 1.4180027 0.6541728 -1.4205898 -0.08617657 -0.008444889 -0.22715634
-0.4685758 1.4068016 -0.88141906 0.2912489 1.4724177 0.9301934 0.11176779 -1.8730433
-0.37228733 -0.35473526 0.71792656 1.1041602 -0.026670953 -0.46023417 -0.14977004 -1.660706
-1.1922805 0.36224025 -0.8656778 0.0718018 0.64049774 1.3648777 -0.56747305 0.9458404
-0.5091268 0.01488869 0.5134356 1.599923 -0.56045645 0.93901783 -0.55718523 0.66220725
0.16577774 1.3824571 -0.42171636 -1.5032524 -0.11229146 -0.87533116 1.1005019 -0.22536336
-1.0111254 0.5704818 0.7319556 0.8268968 -0.17436615 -0.47953406 0.48522776 1.0321946
0.19283369 0.40635952 -1.0775813 2.1327682 -2.1633317 0.15686841 0.60742015 1.2230917
-0.91153497 0.007213404 -0.4314913 1.7625067 0.9830554 0.86812204 -1.3362023 0.9888245
-1.0164325 1.0265889 0.15485524 0.3833568 -0.70841753 -1.5746812 1.5191393 0.9498936
2.6482403 -0.9109459 0.53286904 -1.2980379 -0.38911557 1.6039307 1.1683215 0.11660494
1.8193507 -0.7126845 -0.79339725 -0.25480166 1.2053847 -1.5429779 -0.52777255 -1.09011
-0.7602626 -0.785444 -0.84164625 0.087757125 0.31400517 1.3124092 0.8930965 -1.9161867
1.4952743 1.5138671 0.0010343232 -0.3872875 0.52246815 0.1671134 -1.1835039 -0.9875751
0.21128978 1.3714857 0.55333495 -1.4915473 -1.1888672 0.46500885 -0.69289917 1.2734919
-1.0299906 0.9651029 3.1884623 0.10918698 1.4929439 -1.5095751 0.6431009 -0.60264397
1.0974681 -1.2817109 0.65616775 -0.37754378 0.51160663 -0.11153138 1.4579597 0.34652397
-2.0068347 0.3586605 -1.9116036 -0.07955492 0.30578825 0.021903122 -1.4127451 0.07000435
-0.528748 0.3331074 -0.64608365 2.504515 0.45783025 0.8623534 -0.9270428 -1.4560593
1.3747681 1.8602653 0.50352204 0.75556344 -0.89517134 0.58957285 -0.5099954 0.5115573

inp.emb.weight f4 [4, 135]
00000000: 8ace 0e3e fcb4 15bf 0ae7 343f e1b1 58bf
00000010: e8c6 6d3d 46e2 af3d b017 c0bf 5c4b 61be
00000020: d6ff 05bf 3102 473f d79b f2bf 4afa 72be
00000030: 2086 71bf 8a64 babe 354a ab3c 09a0 38bf
00000040: b55b 363f cd96 d6be d0b6 babe 4359 6c3f
00000050: cc0f 27be 2dc4 b8bf a088 273e 892f e53e
00000060: a0e0 673d 7b01 013f 5889 9a3c 01fb b23e
00000070: 3b35 80bf c850 12be 2175 c6be 5e57 453b
00000080: fc46 573f 36f3 763f 3b06 a13f a808 c23e
00000090: 7bda 01bf 2885 403d 2aa7 173f e1b1 cdbe
000000a0: 9ad6 84bb adb3 f93b 7ef9 22bd c0cd 193f
000000b0: 7ba6 573f 512e 71be d96c 38bf f6df 2a3e
000000c0: f520 a6bd e3cc 20bf ceab 373f c321 0bc0
000000d0: db13 f9be 5ad3 66bf 03ec aebd 7e63 593f
000000e0: 1d98 943d d6c8 a7ba 1601 67bf d33e 783f
000000f0: 0843 e2bf bdfe 4abe 3370 9bbd 33a7 a7bb
00000100: af01 88be 454b 02bd 4e16 06c0 5d01 3cbf
00000110: cc3d 013f b32e 34be 09d9 393f 92d2 8c3d
00000120: c575 ae3e 2637 c73e b426 363e 0d72 553d
00000130: 2be8 953f ddcf 7bbd 8aac 423f 364d 393e
00000140: c880 b23d 6ed9 813f 2a47 303f 7827 843f
00000150: fcd6 753e 30bd 11bd d6b8 8ebd 76f7 403d
00000160: 0a79 9d3d e684 333f 8b0f 873c 7479 c63e
00000170: aa02 9f3f 3c28 ab3f d924 76bf 4cef ab3e
00000180: 1116 f93e 3f6f a4bf ca24 afbc 9574 7b3e
00000190: 7cf7 68bf d9e0 54bd 9e9b 583f 7467 23be
000001a0: 4cba 2ec0 5621 8e3f a75a 0abf ed55 fa3d
000001b0: c5c7 303c 9086 563c e1b8 96bc f4d1 56bd
000001c0: 65d1 ff3b 484d b43d 6e33 fbba b5f3 0dbd
000001d0: 784f 073d ac30 f3be 18d2 3abf eb97 103f
000001e0: 1884 02c0 7d77 b7bc 81ee 883e 5006 a0be
000001f0: 9eb6 273f 2f09 4c3d 6386 cb3e 6644 9ebd
00000200: e841 5cbf 0dab 6d3d f1f1 f33c 093f f33e
00000210: 6e71 81be 1f64 493e 755d 96bf 3290 4bbe
00000220: 3b90 223f e5b9 9d3f 3256 efbe e728 4a3d
00000230: 8255 aabf 28af 833f 0534 343f ae2e e73f
00000240: d560 743f 773b 863d 9d18 70bc 9dd4 2d3e
00000250: 4196 09bf be35 6f3f 2791 123e 2c8f 81bf
00000260: bf07 07bf 8d07 8bbf 7fe4 36bf f250 633f
00000270: 3150 e2bc 668a bdbe 7db8 07bf 7ad2 a8bd
00000280: 3f47 7b3f ce3f 663d bfce 75bf 89ba 3e3f
00000290: 32dd e7be 8e30 19bf eff7 9cbd 8872 f23d
000002a0: 8c93 01c0 4144 25bf 1439 f1bd 18b1 03bf
000002b0: 20dc e9bc b501 7dbf 0622 893e ad61 a0bd
000002c0: 2b4a 4abd d067 ba3e d70e 7a3e d41f 35be
000002d0: 1e91 ad3e 2780 9c3d 8bc9 853f 86ac 393c
000002e0: 3e39 093f a000 b1be 13c5 6e3f 352f bebf
000002f0: 732f 433f ac13 1b3d 60d2 a5bd c3a1 693d
00000300: b6ed 87be f7eb 62bf 1c3b 08bf a657 cb3f
00000310: a2e8 de3e 885c 05bd b480 003d 6c48 a53e
00000320: d543 8fbf ed06 2740 07ec a1bd 3802 813d
00000330: f320 06bf 8da1 843e 06c6 883d 8212 c33e
00000340: d1e7 40be 0504 5a3f 8ea0 783d 3965 133e
00000350: ed45 ffbc 6a2d 77be f185 0dbf f3dc b6bf
00000360: 8c8f e1bd e914 40bf 6f39 b3be c035 6fbf
00000370: 6206 d5be a0b6 af3e b2ae f1bc 8879 abbe
00000380: a4e0 25bf 51c8 563b fa25 8fbf 096a 85bf
00000390: 7b30 17bf 3fbe 2ebe dc34 cbbe 848f d93e
000003a0: 193d 323f 0db9 01bf c00d 2dbf 322e 393f
000003b0: 5371 99bc d50c b8bf 6d11 05bd 00ec e23d
000003c0: 14cf 7dbe 350b 66bf d145 82bf 175f 4abb
000003d0: dd00 a7bd 2636 43bd 1612 5e3f 2333 983d
000003e0: 23c3 88bf 144c 33bf bbae 933c 2038 cf3c
000003f0: 6fc2 103d ea76 5d3d 0ce5 4cbf e8de da3d
0.13945976 -0.58479285 0.7066504 -0.8464642 0.05805102 0.0858808 -1.5007229 -0.22001404
-0.523435 0.7773772 -1.8953809 -0.2372829 -0.94345284 -0.3640483 0.020909408 -0.72119194
0.71233684 -0.41911927 -0.364676 0.923237 -0.1631462 -1.4434868 0.16360712 0.4476283
0.056610703 0.50392884 0.018864319 0.34957126 -1.0016245 -0.14288628 -0.38761237 0.003011189
0.8409269 0.9646486 1.2580026 0.3789723 -0.50724 0.047001988 0.5923945 -0.40174773
-0.004053903 0.007620296 -0.039788716 0.60079575 0.84238404 -0.23552825 -0.7204109 0.16686997
-0.08111755 -0.6281263 0.7174653 -2.1739357 -0.4864796 -0.90166247 -0.085411094 0.8491744
0.07255576 -0.0012800943 -0.9023603 0.9697086 -1.7676706 -0.19823737 -0.0758976 -0.0051163672
-0.26563784 -0.031810064 -2.0951114 -0.7343958 0.5048492 -0.1759594 0.72596794 0.068761006
0.34074226 0.38909262 0.17788202 0.05211072 1.1711477 -0.06147753 0.76044524 0.1809586
0.08715969 1.0144479 0.6885859 1.0324545 0.24007791 -0.035580814 -0.069688484 0.047110997
0.07689102 0.7012466 0.016486904 0.38764536 1.2422688 1.3371654 -0.96149975 0.33581007
0.48649648 -1.284645 -0.021379847 0.24556191 -0.9100263 -0.051972244 0.84612453 -0.15957433
-2.7301207 1.1103923 -0.54044574 0.1222342 0.010789816 0.013093606 -0.018398704 -0.05244632
0.007806944 0.08803803 -0.0019165108 -0.034656245 0.03303477 -0.4749807 -0.7297683 0.5648181
-2.0393124 -0.022395844 0.26744464 -0.31254816 0.65513027 0.049813446 0.39750966 -0.0772789
-0.86038065 0.058024455 0.029778453 0.4750903 -0.25281852 0.196671 -1.1747271 -0.19879225
0.6350133 1.2322356 -0.4674545 0.049355414 -1.3307345 1.0287828 0.70391876 1.806112
0.95460254 0.06554311 -0.014654306 0.16975637 -0.53744894 0.9344138 0.14313184 -1.0121818
-0.52746195 -1.0861679 -0.7144241 0.8879539 -0.027626129 -0.37019652 -0.5301588 -0.0824327
0.9815559 0.056213193 -0.96018595 0.7450338 -0.45285946 -0.59839714 -0.07664477 0.11838251
-2.0246305 -0.6455727 -0.11778465 -0.514421 -0.028547347 -0.9883073 0.2678377 -0.0783113
-0.04938714 0.36407328 0.24419723 -0.17687923 0.33899778 0.076416306 1.0452131 0.011332637
0.5360297 -0.3457079 0.9326946 -1.4858156 0.76244277 0.037860557 -0.080967665 0.057039034
-0.26548547 -0.88641304 -0.53215194 1.5886123 0.4353686 -0.032558948 0.03137274 0.32281816
-1.1192576 2.6097977 -0.07906347 0.06299251 -0.52394027 0.25904503 0.06678395 0.38100058
-0.18838431 0.85162383 0.060699992 0.14394082 -0.031161273 -0.24138418 -0.55282503 -1.4286178
-0.110137075 -0.75031906 -0.35004756 -0.9344139 -0.41606432 0.3431902 -0.029502247 -0.33491158
-0.647959 0.0032773206 -1.1183465 -1.0422984 -0.5905835 -0.1706476 -0.39688766 0.42492306
0.6962448 -0.5067299 -0.67599106 0.72336113 -0.018730795 -1.4378916 -0.03248732 0.1108017
-0.24786025 -0.8986085 -1.0177556 -0.0030879432 -0.081544615 -0.04765906 0.86746347 0.074316286
-1.0684551 -0.7003796 0.018027654 0.025295317 0.035341676 0.054068483 -0.80037 0.10687047

blocks.0.ln1.weight f4 [4]
00000000: 6fdb 143f 6bd3 9d3f c8b1 bb3f b4b6 833f
0.5814733 1.2330145 1.466363 1.0290132

blocks.0.ln1.bias f4 [4]
00000000: 417a afbb 0edb c63a 0c17 4fbd e198 7e3d
-0.00535515 0.0015171485 -0.05055909 0.062157515

blocks.0.msa.w_q.weight f4 [4, 4]
00000000: 57b3 3bbe 6c85 8ebe d661 c9bd 121d 61be
00000010: 4b47 913e 15bf ff3d 9fe6 f03b 9467 12bd
00000020: f34e 94be 808b 6a3e bea3 073f d69f 8f3c
00000030: 5273 f43d edb2 b53d 8610 cb3e e1b1 7c3c
-0.18330131 -0.27836168 -0.09833114 -0.21983746 0.28374705 0.12487618 0.007351711 -0.03574331
-0.28966483 0.22904778 0.52984226 0.01753227 0.11936058 0.08872018 0.39661044 0.015423269

blocks.0.msa.w_k.weight f4 [4, 4]
00000000: 2672 343e 4ce3 3fbe 7757 693e a6c5 823e
00000010: 8568 1ebf b0d5 23be 7ba1 afbe d83b 71be
00000020: 17eb 9bbe 1ae7 f43d 97ce 363e 4363 11be
00000030: ee79 92bd 5d0a d23b 1492 ff3e c6b1 2a3e
0.17621669 -0.1873905 0.22787271 0.2554142 -0.61878234 -0.15999484 -0.34302887 -0.23557985
-0.30452797 0.119581416 0.17852245 -0.14198022 -0.071521625 0.006409927 0.49916136 0.16669378

blocks.0.msa.w_v.weight f4 [4, 4]
00000000: cc52 e13d 4534 303f b50f 4c3f 3e29 babc
00000010: 5308 2d3f c2aa 7dbf 4f38 2abf 5202 873f
00000020: 422c c43e be43 6cbf db3e 75be 4241 cfbe
00000030: a44b ba3e 0395 ee3e 2cda 813f c7f5 9cbf
0.110021204 0.68829757 0.7971147 -0.022724744 0.67590827 -0.9908868 -0.6649217 1.0547583
0.38315016 -0.92290866 -0.23949759 -0.40479475 0.36385834 0.46598062 1.0144706 -1.2262505

blocks.0.msa.w_o.weight f4 [4, 4]
00000000: e464 31bf 5ea5 723f 1d05 283f 4513 4cbf
00000010: a626 183e 5cb2 2f3f b2b9 dcbe 3b5d 5bbf
00000020: 05d3 0d3f 1389 dfbe 8ba3 9abe 3e85 513f
00000030: 9194 bd3d 24f4 78be 1fa4 bdbf d85b 4cbf
-0.6929457 0.9478358 0.656328 -0.797169 0.14858493 0.6863153 -0.43110424 -0.85689133
0.55400115 -0.43659267 -0.30202898 0.81843936 0.092568524 -0.24311882 -1.4815711 -0.7982764

blocks.0.msa.w_o.bias f4 [4]
00000000: d852 f6bc 4129 fc3d 1a3e 0f3c bac0 22be
-0.0300688 0.12312556 0.0087428335 -0.15893832

blocks.0.ln2.weight f4 [4]
00000000: 3b58 433f a4fb 8a3f d489 3a3f d5f7 763e
0.76306504 1.0858045 0.7286656 0.24117978

blocks.0.ln2.bias f4 [4]
00000000: c15b af3a 31b1 87bd bb4f 6ebd 8565 ffbd
0.0013378785 -0.066255935 -0.058181506 -0.12470535

blocks.0.feedforward.0.weight f4 [40, 4]
00000000: f428 fbbc e736 5a3e 6969 a4be b9da 7abe
00000010: 1e82 853e 0c36 22bf 5716 803e 36f8 5b3e
00000020: 4a72 2e3d 07ba 313e 6a4e b63c cde2 bd3e
00000030: 1abd 7e3e 4e9e 6dbf 2b9d 55bd 1655 81be
00000040: 65fc 413d e4ae 84be 918b 7c3e 835e a2be
00000050: 0947 053e f8d1 3cbe 0457 5a3e 815b 7cbe
00000060: 3a44 8dbe ec39 253d 7870 02bd 57c1 18bf
00000070: 5f92 553e 07f8 42bf 8b3d 9b3d b1d8 87be
00000080: 0fb1 0e3e 2161 603e b8f4 d8be 1f16 24be
00000090: f7db d83d a604 083e 9ab1 093e c7c5 133e
000000a0: 6953 3fbd 2520 453e 4fb9 d0be 1892 59be
000000b0: 3151 9c3d 5825 8abe a6c8 983d 2b2d e3bc
000000c0: 94fe ee3c 1d7b f93d cf75 4f3e ab47 443e
000000d0: e91c c2be f76a fc3d 0ee8 e7bd c953 0dbe
000000e0: 93d5 64bd f53c 483e a62a d03e 2b0b 293d
000000f0: 6fd2 d63e 275c 24bf 78d2 e13d 2fb7 f73e
00000100: c94a d0be 6bc2 0d3f c9c7 a63e 2a1e 813e
00000110: 4b03 56be d9af 30bd 820c 8cbe c18e abbd
00000120: bd50 c6bd fab8 0e3e 7481 803e 21c0 73bd
00000130: 920a 9b3d fdb9 55bd 4ef5 203e d236 593e
00000140: 823b 4ebe fc6d cb3d be7d 8b3e a27f bebe
00000150: f011 a0be ccaa d83d e1d9 3bbe 9bcd 673e
00000160: fe9f adbe 9d9b e23d 2e04 3ebe 218c 933c
00000170: da98 b33e 7e41 4abf 0a23 09be e2f4 86be
00000180: 2a8d d33b 4963 323e a145 3c3e d1a1 1f3f
00000190: 677a 8d3d f0db 183d 9910 293e 06c1 2d3e
000001a0: 6527 9f3e 646b 80be ad59 a33e 5838 5bbc
000001b0: 8a36 7dbe 410b c03e a1c0 71be 42f9 2b3e
000001c0: fded 4e3d 4ed4 cdbe 7480 27be 9012 bebe
000001d0: faeb 08be 6e0c 963e e47b 183f 4979 4dbe
000001e0: 72fc 84bd 313f 1f3e 4454 683e 62b0 f8bb
000001f0: 5c10 de3e 9780 273e e9de 963e c8b7 be3e
00000200: 7be8 023e 69d8 e63e c038 a6bd beec 083f
00000210: b995 3b3e 15f9 013f 2100 413e 09ec 223f
00000220: 2d0f 103f b3af 06bf b04a 1d3f 0a80 9f3e
00000230: b425 e9bd efa5 263e 7979 18be e6b5 023e
00000240: e319 d13e 7752 29bf b34a 063f d7f2 643e
00000250: b6a4 c83b 1a73 abbe 8945 ce3e d2f2 92be
00000260: 3d0f 7ebe 983c 023f e06e 05bf 543b 83bd
00000270: 25a4 69be a4fd 6dbc 4802 263e 27d1 403d
-0.030659176 0.21310006 -0.32111672 -0.24497499 0.26075834 -0.6336372 0.25017044 0.21481404
0.042589463 0.1735612 0.022254188 0.37087098 0.24876824 -0.9281968 -0.05215184 -0.25260228
0.047359843 -0.2591468 0.24662615 -0.31712732 0.13015379 -0.18439472 0.21322256 -0.24644281
-0.27591115 0.04033844 -0.03184554 -0.59670013 0.20856617 -0.7615971 0.07580098 -0.2653251
0.1393473 0.21912052 -0.42374206 -0.16024064 0.1058883 0.13283023 0.13446656 0.14430915
-0.046710405 0.19250543 -0.4076638 -0.21247137 0.076326735 -0.26981616 0.07460146 -0.027731499
0.029174127 0.12181685 0.20259784 0.19167964 -0.37912682 0.123250894 -0.11323558 -0.13801493
-0.055867743 0.19554503 0.40657538 0.041270416 0.41957423 -0.64203113 0.11026472 0.48381945
-0.40682057 0.55374783 0.325743 0.25218326 -0.20899694 -0.04313645 -0.27353293 -0.083768375
-0.09683368 0.1393775 0.25098765 -0.0595094 0.075703755 -0.052179325 0.15718576 0.21212319
-0.20139888 0.09933087 0.2724437 -0.3720675 -0.31263685 0.10579452 -0.18344833 0.22637026
-0.33911127 0.11064837 -0.18556282 0.018011155 0.35077554 -0.79006183 -0.13392273 -0.26358706
0.006456037 0.17420687 0.18385936 0.6235629 0.06908112 0.037319124 0.16510238 0.16968164
0.31084743 -0.25081933 0.31904355 -0.013380133 -0.24727836 0.37508586 -0.23608638 0.16794303
0.050519932 -0.40201038 -0.16357595 -0.37123537 -0.13371268 0.29306358 0.5956404 -0.20065798
-0.064934626 0.1555145 0.22688395 -0.007589386 0.43371856 0.16357647 0.29466942 0.3724959
0.12783997 0.45086983 -0.08116293 0.5348624 0.18318833 0.50770694 0.18847705 0.6364141
0.56273156 -0.52611846 0.6144209 0.31152374 -0.113841444 0.16274236 -0.14890088 0.12764701
0.40840062 -0.66141456 0.5245773 0.22358261 0.0061231507 -0.33486253 0.40287426 -0.28700882
-0.248105 0.5087371 -0.52122307 -0.064078 -0.22816522 -0.014525805 0.16211808 0.047074463

blocks.0.feedforward.0.bias f4 [40]
00000000: 61af a6bd 4e38 f4bc 90a1 853d 83af bcbe
00000010: 2eac 613e 55b1 5fbd 1075 3abe 57d8 17be
00000020: 35c2 efbe 5663 cd3a af39 94be 211e 21bd
00000030: 26cf 6d3c 5d42 b9bc df33 ec3d 4dc9 a7be
00000040: 6127 01bf 1fdc d5bd 1f45 88bd 9640 ad3d
00000050: 4114 1bbe 38cd b7bd e5f3 e1bd cb04 a7bd
00000060: 7c07 cc3d 58cc b43c 4358 5f3d 4e65 8bbe
00000070: 38b5 20bc 8ad5 51be 3c51 76bd 336f 9e3d
00000080: 59d2 40be ed32 a6bd b957 8abc fc4d d4bd
00000090: 760f 4abe 139c ab3d 9460 cfbe d503 62be
-0.081389196 -0.029812004 0.06524956 -0.36852655 0.22038338 -0.054612476 -0.18208718 -0.14828621
-0.46827856 0.0015669863 -0.2895026 -0.039335374 0.01451472 -0.022614652 0.11533331 -0.32770768
-0.5045071 -0.104423754 -0.06653809 0.084595844 -0.15144445 -0.08974689 -0.11032847 -0.08155211
0.09962365 0.022070095 0.054527532 -0.27225727 -0.009808831 -0.20491615 -0.060136065 0.07736053
-0.18830241 -0.08115182 -0.016887533 -0.10366437 -0.1973246 0.08379378 -0.4050337 -0.22071774

blocks.0.feedforward.3.weight f4 [4, 40]
00000000: 75c7 103d c9c0 1b3d 64d9 03bd e1c3 9f3e
00000010: 4028 7dbc e218 143d ba60 ca3d 878d 113e
00000020: 15ce 233d b3f2 4b3c 8504 113e 7276 42bb
00000030: 8939 8abc d3f1 28be de57 12be f081 4cbd
00000040: 4070 923d 373e 12bd 6f0e fbbd 3fd3 923c
00000050: 7342 c63b 0bca d0bd e393 d1bc a756 ad3e
00000060: ac92 b5bd 5245 023c 325e c03d c20d 02bd
00000070: d682 763d 8f19 3abe cf65 01be c6dc ea3d
00000080: 008a b23c ff7a 57bd d628 df3d a452 033c
00000090: 9585 b23e 969b f1bd 48d0 cf3d 9efc 7d3d
000000a0: b03a 82bc c407 a9bd 4ea9 34bd e4f5 14bc
000000b0: 99c8 a0be 622e b6bd 6a1d 9d3d b785 edbd
000000c0: c350 343d 83db 1c3d c2a3 a83d 9df1 6fbd
000000d0: 84ce 193d ba4c 0bbe 4fa3 0dbe 9780 423d
000000e0: 2bf5 193d 77cc 2bbd eea6 60be d71a 883d
000000f0: 7b6e d13d c6c1 9cbd 99ce 19bd df82 3dbe
00000100: c675 243c 2a55 41bd 1861 96bd 287c ef3d
00000110: afdf abbd b81e da3d 7145 47bd 6ba7 27bc
00000120: 954d fe3d 478a 5c3e a6d4 09be be12 043d
00000130: d7d2 97be 967c 90be abb5 f13d f693 723d
00000140: f3d5 23be 0ea2 ac3d 1ae1 68bd 459f 883e
00000150: d037 29bd 8dbe 4e3b 7e4d e93d 6515 b33c
00000160: 6fd6 aebe 8f7e 633d e537 43bd 3fe9 68bc
00000170: 4178 a53d a4ed 68bd 1da0 943d 78f4 903e
00000180: b16c 623e 2dd3 89bd ad1d 2fbd 309d bc3d
00000190: 6c98 3a3e c73b 843c b529 0bbc 32aa 8f3e
000001a0: d98e f93c 4674 073d d3f3 edbd 23a9 82bd
000001b0: 44af fa3c 6832 763e 9396 573d 7e6f 6cbd
000001c0: 3b22 14bd 9e1c cabd b4aa 1b3e 885c 17bc
000001d0: 9dfc f43d 9ceb 14bd b95a 2ebe b7aa 0c3e
000001e0: 9be8 92bc 811a 08be e264 573d c238 8cbe
000001f0: 8286 f43d cd40 eb3c e482 933c 6b0d 13be
00000200: 7057 14bd 3dd6 953c 4412 64bd 2312 aebc
00000210: 29bc 1c3a 7974 003e 2773 483d 3c7a 9fbe
00000220: 8d93 c53c c1fd 0abc ac07 75bc 1b13 b13d
00000230: 4fc7 153e 52c8 dc3d 0a2d 283e d8bc a8be
00000240: e24d e43d 2f5a 0e3d d6a5 f5bd 7b09 9d3c
00000250: fab5 5c3d 9f13 013d 3640 17bd e005 383d
00000260: adb9 a4bd 3d26 18be a9b8 82be 4eeb fb3c
00000270: 0175 b0be b945 10be 23d1 063e 5141 b4bb
0.035346467 0.03802565 -0.03218974 0.3120413 -0.015451491 0.036156543 0.098817304 0.14214145
0.039991457 0.012448001 0.1416188 -0.002967265 -0.016873138 -0.16498499 -0.14291331 -0.049928606
0.07150316 -0.035703864 -0.12258612 0.017922996 0.006050402 -0.10194787 -0.025583213 0.33855173
-0.08865866 0.007951098 0.09392966 -0.0317514 0.06018337 -0.18173812 -0.12636493 0.114678904
0.02179432 -0.052607533 0.10896461 0.0080153085 0.3486754 -0.11797254 0.10147148 0.062008493
-0.015897125 -0.08253434 -0.044106774 -0.009091828 -0.31403044 -0.088955656 0.07671626 -0.1159777
0.044022333 0.03829528 0.08234359 -0.05858003 0.037550464 -0.13603488 -0.13831829 0.047485914
0.037587326 -0.04194304 -0.21938679 0.06645744 0.102261506 -0.07654147 -0.037550543 -0.18506955
0.010037845 -0.04720036 -0.07342738 0.11693603 -0.08392274 0.106503904 -0.04865021 -0.010232787
0.12417141 0.21537124 -0.13460025 0.032244436 -0.29653046 -0.28220052 0.118022285 0.059223138
-0.15999584 0.08429347 -0.0568553 0.26684013 -0.041312993 0.0031546683 0.113917336 0.021860788
-0.34147975 0.055540618 -0.047660727 -0.014215766 0.08079577 -0.056867257 0.07257102 0.28311515
0.22111775 -0.06729732 -0.04275291 0.09209669 0.18222207 0.016141785 -0.00849383 0.28059536
0.030463623 0.03306987 -0.116187714 -0.063799165 0.030601151 0.24042666 0.052633833 -0.057723515
-0.036165457 -0.098687395 0.15201837 -0.00923837 0.11962245 -0.036357507 -0.17026795 0.13736998
-0.01793318 -0.1329136 0.052586444 -0.27387053 0.11939718 0.028717423 0.01800675 -0.14360587
-0.0362162 0.018290633 -0.055681482 -0.021248883 0.0005978966 0.12544431 0.048937943 -0.31147945
0.02411821 -0.008483351 -0.014955442 0.08646222 0.14626811 0.107803956 0.16423431 -0.32956576
0.111476675 0.034753975 -0.11994521 0.01916956 0.053884484 0.031512853 -0.03692647 0.044927478
-0.08043227 -0.14858337 -0.2553151 0.03075185 -0.34464267 -0.14089097 0.13165717 -0.0055009504

blocks.0.feedforward.3.bias f4 [4]
00000000: bb21 b4bc 9bc5 a3bc 082c a93d ca8b 603c
-0.02198874 -0.019991687 0.082603514 0.013705203

blocks.1.ln1.weight f4 [4]
00000000: 3038 8b3f ee9f 7d3f 77ad 943f befd 5a3f
1.0876522 0.9907216 1.1615437 0.8554343

blocks.1.ln1.bias f4 [4]
00000000: f1b7 d53d 4720 f53c 63d3 e0bd 7f3e 84bd
0.10435475 0.029922618 -0.10977819 -0.06457233

blocks.1.msa.w_q.weight f4 [4, 4]
00000000: 7d09 ec3c c7b4 3b3c 5565 c43b db14 bdbc
00000010: 12e4 d9bd fc7d 97bd f2c5 0e3a cd4a f9bd
00000020: 4156 e1be 47c2 9bbe 87d0 3ebe 9fdd b1be
00000030: ceb3 c9be 0c85 c73e 0377 c8be 5312 5a3e
0.028813118 0.011456675 0.005993525 -0.023081234 -0.10639204 -0.073970765 0.0005446366 -0.1217247
-0.4401112 -0.3042166 -0.18634234 -0.34739396 -0.39394993 0.38968694 -0.391533 0.21296053

blocks.1.msa.w_k.weight f4 [4, 4]
00000000: c883 843e 0d79 87be ffb2 a83d d9d1 ab3e
00000010: 8f87 77be d671 d3bd 53c6 5fbe 0346 b6be
00000020: 2fde 07be 0950 41be 5e29 f3bd a158 573e
00000030: 6c28 263d 7433 a33e 5806 5cbe 7994 f83e
0.2588179 -0.26459542 0.08237266 0.3355854 -0.24172805 -0.10324447 -0.21852998 -0.3560029
-0.1326835 -0.18878187 -0.118731245 0.21029903 0.040565893 0.31875193 -0.21486795 0.48550776

blocks.1.msa.w_v.weight f4 [4, 4]
00000000: 1583 04be 65c9 623d c2cd 70bf d22d 893d
00000010: 0ba4 813e ab09 223f 3ed6 dcbe 7a8f 673d
00000020: 564d c0bf 7925 2d3e ddfa ecbd 7bb7 763f
00000030: 858c 3f3f 7eb1 4e3f 8ed2 03bf ac1b 913c
-0.12940629 0.055367846 -0.9406396 0.06698193 0.25320467 0.63296 -0.43132204 0.056533314
-1.5023601 0.16908826 -0.11571286 0.9637372 0.7482379 0.8073958 -0.51493156 0.01771339

blocks.1.msa.w_o.weight f4 [4, 4]
00000000: 0426 fe3e fae8 d33e c465 7cbf c611 233f
00000010: aa24 0cbe 44d1 993e 3a3b 98bc 5463 c63e
00000020: 147a 1cbf e85c 0ebf 4b6e 6cbe 4df2 03bf
00000030: aaf2 583f f190 e33e ce70 043f ed23 823e
0.4963838 0.41388685 -0.9859278 0.63698995 -0.13685861 0.3004247 -0.018582929 0.38747656
-0.61123776 -0.55610514 -0.23088948 -0.51541597 0.84745276 0.4444652 0.51734626 0.25418034

blocks.1.msa.w_o.bias f4 [4]
00000000: ca52 f03e 3cd9 debd 02a1 5fbe 1c38 dc3e
0.46938163 -0.10881278 -0.21838763 0.43011558

blocks.1.ln2.weight f4 [4]
00000000: b349 253f c053 a33f aab2 193f 6f3c 2e3f
0.6456558 1.2759933 0.60038245 0.68060964

blocks.1.ln2.bias f4 [4]
00000000: d5d2 b8bd 5732 493e b120 f03b eca5 ca3c
-0.09024588 0.1964811 0.007328116 0.02473732

blocks.1.feedforward.0.weight f4 [40, 4]
00000000: e229 86be f879 34be 14ec a3be 7eb8 f7be
00000010: 6827 5d3e 87a5 023e 288a 673e b916 8c3e
00000020: 7d05 173f f927 96be a26e 303f 0d77 013e
00000030: 2546 08bf 2781 603e be7e ee3d 2bd9 e23d
00000040: dd8d 49b9 3c44 a5be e8f5 223e b4fc f83d
00000050: 4513 1b3f defd 083e 1350 06be d0db 79bd
00000060: 9417 3fbf a636 a2bd 6fa1 bd3e a475 b6be
00000070: 0e3e 26bd 3878 833e 5cef d63d ac80 fc3d
00000080: 3b7c b63c c427 aabe 90a7 adbd d8c0 f43d
00000090: e070 003f 7827 963e ea42 203d 351b d33e
000000a0: b8c8 a5be 99cd a8be a98f eebe 719b 07bd
000000b0: 31c3 3fbe 787b fe3c 8b4a f7bc f5db 25be
000000c0: 5d39 09bb e631 ef3c de12 093e 1fae 033f
000000d0: 0a6d cbbe 5d5f 4bbe ad58 91be be0a c93e
000000e0: 2723 003f 9244 65be b6a5 9a3e 5fd0 afbe
000000f0: eeb7 7b3e e1d2 1abf f880 283e 857b abbe
00000100: ea8d 213e 36b0 40be c45b a23e 9951 153e
00000110: f8d9 87bd 49a9 49be 975a 2ebb a2ef 8d3d
00000120: 5bfa 8dbe 285e 80be d593 99be 525e 26be
00000130: 7a7e f0bc 3457 1b3f 5678 033e a8b6 3abf
00000140: 0894 983d ce75 f6bb 762a cb3d 0687 e1bb
00000150: ca05 c9bd 70f1 31be 12a4 073e 5911 ab3c
00000160: 0a72 fb3d 9baa f63e 58f5 a33e d237 bc3e
00000170: e8e9 393e e4d2 61be 56f5 c83e 3f6b 3a3e
00000180: 995c 00bf b065 b13e a812 a7bd 0cd5 2fbe
00000190: dc32 a3be 183b 3e3f 3708 153f 3eed f2be
000001a0: dd7e 63be 3b10 373e 2970 5ebe e5ca a13e
000001b0: 3d90 9fbe b527 f9be e07c babe e3ce ffbe
000001c0: 8a7a 833d 0112 233d 535c 6f3d 6d1b 993d
000001d0: f011 ea3d bf7b 103e 8740 59bc b61d b23d
000001e0: db4e e83e a188 92bf 5ff6 c03d a185 12be
000001f0: 384e 25be 6a3c 33be d6ba 233d bc16 2f3d
00000200: da00 8c3e 3d46 9bbe 5054 523e 73bb a3be
00000210: 0aa5 93be 4b6a 903e 9734 bbbe b955 c7be
00000220: f00d d93d 98e1 c5ba 8afd ae3d 1be6 f7bc
00000230: 852b 0ebf b4d3 9ebe d227 c53e f5d4 38bf
00000240: c445 e23e fce3 05bf 7d49 ef3e 0c80 6ebe
00000250: 7ce8 0dbf 50bc 6f3e 8e21 033f ef0d 88bf
00000260: 2a51 e3be 732c 193f a580 c13e 89f0 ecbe
00000270: 61f4 223d 521c 50bd ee25 273e d0b7 613e
-0.2620383 -0.17624652 -0.3201605 -0.48382944 0.21597064 0.12758456 0.22611296 0.27361086
0.5899275 -0.29327372 0.6891881 0.1264307 -0.5323203 0.21924268 0.11645268 0.11076578
-0.00019221702 -0.3227862 0.15914118 0.12157574 0.6057628 0.13378093 -0.13116483 -0.061000645
-0.7464535 -0.079205796 0.37037227 -0.35636628 -0.040586524 0.25677657 0.10494873 0.1232923
0.022276035 -0.33233464 -0.08479226 0.119508445 0.50172234 0.29326987 0.039126314 0.41231695
-0.323797 -0.3296936 -0.4659398 -0.033107225 -0.18726803 0.031064734 -0.030186912 -0.16197188
-0.0020938732 0.029198598 0.13386104 0.5143756 -0.39731628 -0.19860597 -0.28387967 0.39266008
0.5005364 -0.22389439 0.30204552 -0.34338662 0.24581882 -0.60478026 0.16455448 -0.33492675
0.15776792 -0.18817219 0.31710637 0.14581908 -0.06633371 -0.19693483 -0.0026604289 0.06930472
-0.2773007 -0.25071836 -0.299956 -0.16246918 -0.029357184 0.60679936 0.12838873 -0.7293496
0.0745011 -0.0075213676 0.09920208 -0.006882551 -0.09815557 -0.17377257 0.13246182 0.020882295
0.122776106 0.48177037 0.3202312 0.36761338 0.18155634 -0.22053105 0.39249676 0.18204974
-0.5014129 0.34647894 -0.08157855 -0.17171115 -0.3187474 0.7430892 0.5821566 -0.47446626
-0.22216363 0.17877285 -0.21722473 0.3160011 -0.31164733 -0.48663107 -0.36423397 -0.4996253
0.06419857 0.03981209 0.058437657 0.07475934 0.114292026 0.14109705 -0.013260013 0.08697073
0.45372662 -1.1447946 0.094219916 -0.14308788 -0.1614312 -0.17503515 0.039973103 0.04274629
0.273444 -0.30327025 0.20539975 -0.3197895 -0.28836852 0.28206095 -0.3656356 -0.3893259
0.105983615 -0.0015097139 0.085444525 -0.03026109 -0.55535156 -0.31020892 0.38506943 -0.72199947
0.44193852 -0.52301 0.46735755 -0.23291034 -0.5543287 0.2341168 0.51223075 -1.0629252
-0.4439786 0.5983345 0.3779346 -0.46277264 0.03978384 -0.05080826 0.16323063 0.22042775

blocks.1.feedforward.0.bias f4 [40]
00000000: eae1 873d 9ffa f3bc f3c1 6fbe bdaa cfbd
00000010: 773b 313d 2c4f 9dbe 24e3 1cbf db33 b5bd
00000020: 75a1 bbbe 3594 bebe 6a73 5ebe 9948 413d
00000030: d633 85be 64c9 e4be ecbb d3be 928d febd
00000040: 7b33 20be 62ef 9b3c 43b9 4b3d 32c3 e43d
00000050: 8517 bc3c 8c8f 1d3e 1534 30be b66d bcbd
00000060: ee82 13be abe9 9bbe 1e9c cdbe 69ce a8bc
00000070: 090f 03bc 7821 aebc e2c5 9ebe a668 7abd
00000080: 25e1 e33d 362d eebd af7c 2fbb 4eaf e6be
00000090: 7782 84be 4379 b4be c759 06be e86c 0abd
0.066348866 -0.029782591 -0.2341383 -0.101399876 0.0432696 -0.30724466 -0.6128409 -0.08847781
-0.3664662 -0.37222448 -0.21723714 0.047188375 -0.2601611 -0.446849 -0.4135431 -0.12429346
-0.15644638 0.019035045 0.049737226 0.11170043 0.022960434 0.1538679 -0.17207368 -0.09200613
-0.14405414 -0.30451712 -0.4015817 -0.020606237 -0.00799919 -0.021256194 -0.31010348 -0.061134957
0.11126927 -0.11629717 -0.0026777198 -0.45055622 -0.25880787 -0.35248765 -0.13120185 -0.033795267

blocks.1.feedforward.3.weight f4 [4, 40]
00000000: a41e 6a3d 723e 893b 4467 2b3e 8625 5cbe
00000010: 4aed f5bc 075d 383e 13f5 83bd 01d5 9bbb
00000020: 1829 c43d 3dc0 923d 93c3 40bd 2d98 81bc
00000030: 01ec 63bc d20a 0dbe 7c4e 683e 2c19 d63d
00000040: a2cf b43d d286 f0bc 4d0d 2cbd 4200 d63c
00000050: f9f8 95bc d05c 71bd 9e14 5ebd 8012 06bc
00000060: 4a24 0ebe ea98 8fbe c773 b6bc bebf ccbc
00000070: 4750 edbb 60a2 023d dd1b 3c3e e1da fb3c
00000080: 05dd 033d 892c 59bd d5d2 b03c 8934 bebd
00000090: 3775 183e 1034 0dbe eccb 90be a883 0fbe
000000a0: cc92 d93c ab0c 543c 6144 75bd 0611 26be
000000b0: 31d1 74be 0a05 0a3e 45db 963e 31c7 f73d
000000c0: 8063 3abd ee90 fe3c cc31 33be 0436 623d
000000d0: b0c5 29be ee15 47be 935c c13d 44c0 19be
000000e0: 9181 64bd 2ee6 08be f70d e6bd 1d72 013f
000000f0: 90a9 c7bb d097 dabd 81a1 1e3e cb63 babd
00000100: cd3b f93d 4251 d73e 11e3 84be 888b 76bd
00000110: adb0 3bbc 1a33 903d a8e2 02bf b877 13be
00000120: 18ed 86bb ef88 5e3e 5c99 14bc ac0b cd3d
00000130: 8e26 29be 0c76 663e d573 b43e dd35 0e3d
00000140: 3cce 0a3c 52b5 2d3c 1b68 0b3c 0d6d 183e
00000150: 3f8d 003e 825f 81be 5dc9 033d a9e7 c83d
00000160: 80f5 183d 2726 ffbd 81a0 1dbc a8d3 8e3d
00000170: 880e d3bc 1004 19bc ee09 4bbd 690c 0abc
00000180: 5790 163d be7b 813d 3cf0 853c 9c11 03bd
00000190: fc55 13bc ebdc b63d 582a 83bb 01ef a23b
000001a0: 9b0f 363e aa7d 673e f46c 263d 41f1 e7ba
000001b0: 48e2 2abc 09c0 16bd 95c3 b43e d2bb 5a3d
000001c0: cf01 fdbd 2c4a 32bd 6f88 4bbd 4f69 2fbd
000001d0: 09a2 6c3d 28e2 dd3c 2ee7 1a3e 133b 0a3d
000001e0: 6aef d7bc 6a15 f93a 6963 cfbc 2392 273e
000001f0: ba6f 983d 237c e43d c8f2 1b3e bb60 443d
00000200: 9bad 16be e2ee 51bd d31a cfbd 5a71 643d
00000210: 2e86 a93c a3c6 cabc a8b5 513d 62f4 d93c
00000220: fe84 55bc d1d2 953d 91b7 993d f5ac a8be
00000230: 80c0 adbb 7ba8 a83d 347e d53c a3d0 d93c
00000240: 039a de3d cc15 2cbe 2d4f 5ebd 9d1e e2bc
00000250: 55dc 37bc 1f14 5b3d b911 4abd e93d fe3d
00000260: df52 45bd c1c2 61be 74cb 81bd 0d3d e1bd
00000270: 8cb6 1ebe 50c1 49be 1809 cfbd e48b 813c
0.057158127 0.0041883523 0.16738611 -0.21498689 -0.030020375 0.18004237 -0.064432286 -0.0047556167
0.095781505 0.07165573 -0.047061514 -0.015819633 -0.013911248 -0.13773659 0.2268619 0.1045402
0.08828665 -0.029361162 -0.042004872 0.02612317 -0.018307196 -0.058926404 -0.05421888 -0.008183122
-0.1388103 -0.28046352 -0.022272004 -0.024993774 -0.007242236 0.031893134 0.18370004 0.030744018
0.032193203 -0.053020988 0.021584908 -0.09287364 0.14888464 -0.13789392 -0.2828058 -0.14015067
0.026559256 0.012942473 -0.059879664 -0.16217431 -0.23907925 0.13478485 0.29464164 0.120985396
-0.045505047 0.031074967 -0.17499465 0.055227295 -0.16579318 -0.1944196 0.09441485 -0.1501475
-0.055787627 -0.13369057 -0.11233132 0.5056475 -0.0060932115 -0.10673487 0.15491296 -0.09101065
0.12169609 0.42054182 -0.25954488 -0.06019166 -0.011455697 0.07040997 -0.511271 -0.14401138
-0.0041176192 0.21731924 -0.009069767 0.10011992 -0.16518614 0.22505969 0.35244623 0.034719337
0.008472022 0.010602312 0.008508707 0.1488535 0.12553881 -0.2526818 0.032174457 0.09809811
0.037343502 -0.12458449 -0.009620787 0.06973964 -0.025763765 -0.0093393475 -0.049570017 -0.00842581
0.036758747 0.0632243 0.016349904 -0.031999215 -0.008992668 0.089288555 -0.0040028505 0.004972339
0.1777939 0.22606531 0.04063125 -0.0017695801 -0.010429926 -0.036804233 0.35305467 0.053401776
-0.123538606 -0.043527767 -0.04969066 -0.04282504 0.057771716 0.027085379 0.1512725 0.033747744
-0.026359279 0.0019003574 -0.025315957 0.1636434 0.07443185 0.1115649 0.15229332 0.047943812
-0.14714663 -0.051253207 -0.10112538 0.055772163 0.020693865 -0.02475292 0.05119863 0.026605789
-0.013032196 0.07315601 0.07505716 -0.32944456 -0.005302489 0.0823526 0.026061155 0.026588744
0.10869219 -0.1680519 -0.054274727 -0.027602488 -0.011221965 0.053485986 -0.049333308 0.12414152
-0.048174735 -0.22046949 -0.06337634 -0.10997973 -0.15499324 -0.19702649 -0.10109156 0.015813775

blocks.1.feedforward.3.bias f4 [4]
00000000: 3e7d 9f3c 9819 13be cf5b 3cbd e0d2 16bd
0.0194689 -0.14365232 -0.045985993 -0.0368222

blocks.2.ln1.weight f4 [4]
00000000: fc2c 843f fdfd fc3e 8247 c03f de88 663f
1.0326228 0.49412528 1.5021822 0.9005259

blocks.2.ln1.bias f4 [4]
00000000: 5c6d 973c 782a 9b3d 963a e4bd 37fc ca3a
0.018484764 0.0757646 -0.11143987 0.0015486543

blocks.2.msa.w_q.weight f4 [4, 4]
00000000: e312 22be 3ef1 d3be ce7f 03be 61e4 04be
00000010: 55a5 033e 8e74 dd3d 13c1 173d 25f6 e5bc
00000020: c89a 3cbe 6c36 fcbd fb76 bebd 1c57 3cbe
00000030: 157d b1be 532f 73be 4890 01be 0fbe 59be
-0.15827517 -0.4139499 -0.12841722 -0.12977745 0.12856038 0.10813247 0.037049364 -0.028071472
-0.1841842 -0.12315068 -0.093000375 -0.18392605 -0.34665743 -0.23748522 -0.12652695 -0.21263908

blocks.2.msa.w_k.weight f4 [4, 4]
00000000: 0ed5 0cbd db41 c5be db89 a4bd c47e ddbd
00000010: b0e8 aabc aaf1 543e 7006 093d 7767 293e
00000020: baf7 6e3e 00db e7be 0a1b e73c 82bb 273e
00000030: 8906 a2be 9bfb 7e3e d896 03bc 2c03 02be
-0.034382872 -0.38526806 -0.08034106 -0.10815194 -0.020862907 0.20795313 0.033453405 0.16543375
0.23336688 -0.4528427 0.028211135 0.16380122 -0.3164561 0.24900667 -0.008031569 -0.12696522

blocks.2.msa.w_v.weight f4 [4, 4]
00000000: d768 03bf 758b 483d 7d21 34bf af87 503f
00000010: ebfe 573f 5960 bdbd b7dd 5c3e 433b 82be
00000020: acee 9b3e d15c fa3d d53e 6ebf 1d90 88be
00000030: 0a92 2b3e b238 6abc 1bea 8abf d6cf 643e
-0.5133185 0.04896112 -0.703636 0.81457037 0.8437335 -0.092468925 0.21568953 -0.25435838
0.3045553 0.122247346 -0.93064624 -0.2667245 0.16754928 -0.014295744 -1.0852693 0.22344908

blocks.2.msa.w_o.weight f4 [4, 4]
00000000: 0d68 34be 7122 f13e e380 893f 6e80 233f
00000010: 0426 5a3d 49f0 5e3f 0fd7 bc3d 0f6e 0d3e
00000020: e0b9 a1be f3f1 2a3e 466d 953e 0143 573d
00000030: ecf8 613f 2986 cfbe 5b6b 5b3f d4ea 6c3f
-0.17617817 0.4709659 1.0742458 0.63867843 0.05325891 0.87085396 0.09220707 0.13811515
-0.31587124 0.16693859 0.29184932 0.052554134 0.8827045 -0.40532044 0.85710686 0.9254582

blocks.2.msa.w_o.bias f4 [4]
00000000: c22b 01bc 3ac9 cd3e c2fc 763e f514 4cbc
-0.007883968 0.40192586 0.24119857 -0.012456168

blocks.2.ln2.weight f4 [4]
00000000: 0764 393f b7f7 9a3f 15f3 3c3f 5917 193f
0.72418255 1.2106847 0.73808414 0.5980125

blocks.2.ln2.bias f4 [4]
00000000: 8950 5cbe 655a d73c 9755 7b3b ea18 9cbd
-0.21515097 0.02628822 0.0038350576 -0.076219395

blocks.2.feedforward.0.weight f4 [40, 4]
00000000: 8c6e d6bd bc8f 0a3f 0b68 313f 6e06 15be
00000010: 4304 d7bd 6b2b 4d3e 3840 bd3e da90 5fbe
00000020: 5e5d 85bb 9aef c83e f60b e03e cec6 e03e
00000030: c38f 03bd 2ee2 f13d 3784 2cbd 615b 383c
00000040: 7df2 e9be 7e02 323f c0b5 0c3f 07de 3bbf
00000050: 487f e0be 7b97 3bbe bc7a 98be 6f6b 74be
00000060: a49f 303d 8f06 3dbe 06ff 12be 1517 1b3e
00000070: ebd2 aabe a187 0abe dd21 30be 1994 f3bd
00000080: dca0 de3e 9eba 91bf d7d0 b8bd 70be d1bd
00000090: 26b6 01be 7fca 92bd cbe5 00be 9445 9cbd
000000a0: 01d1 3b3f b0a4 573e 29c3 c0bd 4964 4abe
000000b0: 2fd3 313e 132b 26bf b273 80bd f62c 34be
000000c0: 289f fd3e c19c 613e db1d 76be a7cc fcbd
000000d0: 06d3 81be 77c8 0fbe a026 61be 68a9 a8be
000000e0: 8267 4abe 500b fb3e 944d 753e 51f9 98be
000000f0: c6ac cc3e 4a22 a23d 24d5 4dbe 5b47 09bf
00000100: b1e2 7f3e c497 94bd bc3a a33e 56f6 123e
00000110: 9db0 6f3e 3c18 67be a893 883f 8568 f8be
00000120: fd75 183f da0c 79bf 746e c53e 5a85 8bbe
00000130: 85d4 00bd 0058 2cbc 4b7b 763d e26a 3f3e
00000140: f5fe c63c bc58 89bd 3499 1b3d 10f1 90be
00000150: ccd3 383e 9b37 b83e 1a79 1d3f 045e 1abf
00000160: 8b3a 093d 63c0 923d 331d 873e facb 9a3e
00000170: 9cc4 89bd 1024 013e 7655 773e 950f 003f
00000180: 3005 a83e fca0 11bf 2cd7 273f 410f 14be
00000190: f25a 5ebe e102 0c3b 3745 5b3e e92e ae3e
000001a0: 7a6d 203e 5b44 373e f45f 023f 6aed f6be
000001b0: bc37 14bc 540c 1a3d 3cea e63d 161c a9bd
000001c0: 6a33 c9be 6e24 a8be ba78 ae3e 8536 e23e
000001d0: d716 ff3e 830b 31bf 4899 ce3e eb7d 5a3e
000001e0: a733 fdbd b168 5fbe 2ba1 04bd 83d8 a6be
000001f0: 6e13 6ebe f2e9 993e 92d8 ea3e 35c3 e0be
00000200: e946 d7be 6f26 fcbe 547a 6f3e 591f 4ebe
00000210: 4492 77bd 55c3 e9bd d77e d4bc 3224 13be
00000220: e2af c7bc b9c5 c8bb 76d0 5cbe 867f a63d
00000230: cc6e 873d 5c31 07bf 9aeb 823e 4216 f8bd
00000240: c20c d23e 1151 66bf 9243 253f 3691 d8bd
00000250: caad da3e 0947 ce3d 5001 c0be 6b17 39be
00000260: b41c d13e 5bc0 a6bf 0697 07be 99fd debe
00000270: 841b c73e 0ae0 a73e bc9c 043d f336 a43e
-0.10470304 0.5412557 0.6929938 -0.14553234 -0.1049886 0.20036094 0.36963058 -0.218326
-0.004069968 0.392453 0.43759125 0.43901676 -0.032119524 0.118107185 -0.042118277 0.011252255
-0.45692816 0.6953505 0.5496483 -0.7338566 -0.43847108 -0.18319504 -0.2978114 -0.23869108
0.043120995 -0.18459533 -0.14355096 0.15145524 -0.33364043 -0.13528301 -0.17200418 -0.11893482
0.434821 -1.1385076 -0.09024208 -0.10241401 -0.1266714 -0.07167529 -0.12587659 -0.076304585
0.7336579 0.21058917 -0.09412224 -0.19764818 0.17365716 -0.64909476 -0.06272067 -0.17595276
0.4953549 0.22032453 -0.24034826 -0.12343722 -0.2535631 -0.14041315 -0.2198739 -0.32941747
-0.19766048 0.49032068 0.23955375 -0.29877713 0.39975566 0.07916696 -0.20100838 -0.53624505
0.2498882 -0.072555095 0.31880748 0.14351782 0.23407216 -0.22567838 1.0670061 -0.48517242
0.59555036 -0.97285235 0.38560832 -0.27250177 -0.031452674 -0.010519028 0.060176175 0.18693116
0.024291495 -0.06706378 0.037987903 -0.28308916 0.18049544 0.35979924 0.6151291 -0.60299706
0.033503097 0.07165601 0.26389465 0.30233747 -0.067269534 0.12611413 0.24153695 0.50023776
0.32816458 -0.5688627 0.655627 -0.14458944 -0.2171438 0.002136402 0.21413122 0.34020165
0.15666762 0.1789717 0.5092766 -0.48228008 -0.009046491 0.037609413 0.112751454 -0.0825731
-0.39297038 -0.32840294 0.34076482 0.4418222 0.49822113 -0.6915819 0.4035132 0.21337096
-0.123633675 -0.2181728 -0.032380264 -0.3258706 -0.232496 0.300613 0.45868355 -0.4389893
-0.42046288 -0.49248073 0.23386508 -0.20129146 -0.060442224 -0.1141421 -0.025939388 -0.14369276
-0.02437586 -0.006127086 -0.21563897 0.08129792 0.0661293 -0.5280969 0.25570375 -0.1211362
0.41025358 -0.8996745 0.6455623 -0.10574572 0.42710716 0.10072143 -0.37501 -0.1807534
0.4084221 -1.3027452 -0.13241205 -0.43552855 0.3888818 0.32788116 0.032376036 0.32073173

blocks.2.feedforward.0.bias f4 [40]
00000000: fab2 09bf c47b 90be 8a35 c1bd e66c 61bd
00000010: 2fae 25bf a631 62be 52f4 00be a4ad 39be
00000020: c2fa 7cbd f1a9 87bd 8fb5 50be f153 f0bd
00000030: f5a0 04bf 3e29 96bc 68ae 96be 40ac 9abe
00000040: 98e0 143e 3e8a 22bf ea62 2dbe 6ca7 49bd
00000050: c379 7a3d 4298 b3be 79b9 06bc a3d4 47be
00000060: b655 a1be 8cc7 6cbe c01e 183e 7ada 263a
00000070: c41c e6be 1db1 5dbd 2fd5 12bc a9f7 d6be
00000080: 1e62 17bf 7723 5b3d 59f0 eebd 4724 2ebe
00000090: 74d0 a3be e2c2 10bf 2085 87be 6ff7 35be
-0.5378872 -0.28219426 -0.0943404 -0.055035494 -0.6471891 -0.22089252 -0.12593201 -0.18132645
-0.06176258 -0.066242106 -0.20381759 -0.117347606 -0.518081 -0.018330213 -0.29429936 -0.3020954
0.145388 -0.6349219 -0.16932264 -0.04923193 0.061151277 -0.350771 -0.008222931 -0.19514708
-0.31510705 -0.23122996 0.1485548 0.0006364953 -0.4494382 -0.054123987 -0.00896196 -0.41985825
-0.5913409 0.05350062 -0.116669364 -0.17006026 -0.31994975 -0.5654737 -0.26468754 -0.1777017

blocks.2.feedforward.3.weight f4 [4, 40]
00000000: 89e4 b2bc b623 c6bc 175a 083d 9e4c ce3b
00000010: 162b 243e af5a babc 691a f7bc 3121 39bd
00000020: 704c 103e 8d02 fcbb 0282 133d 8a2b 8d3d
00000030: c1f3 593d 012c 8bbc 2b5a 2f3e 3695 8f3d
00000040: 4b2a 003d e9a2 e6bc 9565 1e3e a64b 3abd
00000050: 3d9b 533b 2e22 903d bdf0 65bd 988a 8dbd
00000060: dee2 0e3e 01f5 c2bd 6f3e c83d f593 0b3d
00000070: 9ae9 65be 0a90 ce3d 8c1d 0e3c a5a0 0d3d
00000080: 5ba6 9fbc 8692 3dba ef2b e4bc e57e e3ba
00000090: 3455 e63d 4eb1 463c e44a 633e 0022 803c
000000a0: 500c 9e3d c527 b93d e907 9ebe 92e3 f5bd
000000b0: 4193 8a3e f34f b8bd 70c7 ae3d 4a23 b1bd
000000c0: 5167 d73c 7f37 a9bc e633 f3bc 7839 f83d
000000d0: 9c37 cfba 8b0b 5fbd 8e54 073e 0b64 9dbd
000000e0: d2bf fa3c 1d60 c23d fc25 6f3d 161c 83bc
000000f0: fabf 383d 54a8 e23d f614 b3bd f1ce 8bbe
00000100: 3f8f 003e 82db 21be 11f2 c53c 7ffd eb3c
00000110: bd78 89bd 686b 723e 2868 9d3d 978b 683e
00000120: 2169 0e3e b038 e7bc 441b 0bbd 9cdf cd3d
00000130: 2515 843d db17 12bc 1314 e03d 5dd6 a6bd
00000140: e5dd f33d 33c9 043e c75c 173e e2f1 723c
00000150: c322 643e a8ef f03c e0e5 e8bc ab86 333d
00000160: 552b e63e 6d39 e33b cf71 95be 1cbe 9bbb
00000170: a057 02be ca0e 313c 1f14 153e 133a 8bbe
00000180: 384a 8e3d 21ac 2b3d be7f ba3e 1a44 5c3b
00000190: 215e 79bd 6264 f73c 53e4 873d e3ee 573d
000001a0: 6703 5d3e 58c8 063e 60a5 d13d 6497 0e3d
000001b0: 3ab7 b33b b65f 4e3e d8fb 3d3d f199 753b
000001c0: 0728 b43b dc74 d43c 75bb 90bd 84da 1e3e
000001d0: a063 e23e 8383 30be 3f2b f83e 073a 2ebd
000001e0: 2bc2 f0bd e267 f33b 9d4a f13c 309b 35bd
000001f0: 2832 babe 6441 373d 7baa 8cbd 10db 903d
00000200: 7f8f 8cbe 65d5 d13c 93a5 0a3e ed68 c1bd
00000210: d2a9 a13d e738 debb 1bda 9ebd fa71 873d
00000220: ee86 543d 3961 4dbe d31d aebe 82b7 e83c
00000230: a6e1 78bd 0586 0abe 13d9 553d 1fc0 bb3d
00000240: 3702 98bd a745 0b3e 6aa5 adbd 1685 643c
00000250: 9bd6 0e3e 93ba 59be 276b a33d 1656 8bbd
00000260: f65a 4c3d c79e 9f3c 6e4f 06bd cc4f 153c
00000270: 3d9f cabd 37c4 ea3d cc19 12be de0a 0fbd
-0.02183749 -0.02418695 0.03328904 0.0062957546 0.16032061 -0.02274832 -0.03016396 -0.04519767
0.14091659 -0.0076907338 0.036012657 0.0689307 0.053210977 -0.016988756 0.1712424 0.070108816
0.031290334 -0.028153853 0.15468438 -0.0454823 0.0032288574 0.07037769 -0.05613779 -0.069112
0.1395373 -0.09519387 0.09777533 0.03407665 -0.22452393 0.10086067 0.008674037 0.03457703
-0.019488504 -0.00072316115 -0.02785298 -0.0017356543 0.1124672 0.012127234 0.22196537 0.015641212
0.07717192 0.090407886 -0.3086541 -0.12006296 0.2706547 -0.08999624 0.085341334 -0.08649309
0.026294382 -0.020656345 -0.029687833 0.12120336 -0.001580942 -0.054454368 0.13215849 -0.07685097
0.030609045 0.094909884 0.058385834 -0.016004603 0.045104958 0.11067262 -0.08744232 -0.2730632
0.12554644 -0.15806392 0.024163278 0.0288074 -0.06712482 0.23673785 0.07685882 0.227095
0.13907291 -0.028225273 -0.03396155 0.10052416 0.064493455 -0.00891682 0.10941329 -0.08146355
0.119075574 0.12967376 0.14781485 0.014828177 0.22278886 0.029411152 -0.028429925 0.0438296
0.44954935 0.006934336 -0.29188392 -0.0047528874 -0.12728739 0.010806749 0.14558457 -0.27192745
0.0694775 0.0419122 0.36425585 0.0033609928 -0.060880784 0.030199233 0.06635346 0.052718055
0.21583329 0.13162363 0.10236621 0.034812346 0.005484489 0.20153698 0.046382755 0.003747579
0.0054979357 0.02593463 -0.070670046 0.15513045 0.44216633 -0.17237668 0.48470494 -0.042535808
-0.117557846 0.0074281553 0.029454524 -0.04433745 -0.3636639 0.044740096 -0.06868454 0.07073033
-0.2745323 0.02561445 0.13539724 -0.09443841 0.07893719 -0.0067816856 -0.07756444 0.06613536
0.05188649 -0.20056619 -0.3400713 0.028407816 -0.06076207 -0.13527687 0.05220897 0.091675036
-0.074222974 0.13600789 -0.08478816 0.013947746 0.13949053 -0.21262579 0.07979422 -0.06803529
0.049891435 0.01948489 -0.032790594 0.009113263 -0.098936535 0.11463206 -0.14267653 -0.034922473

blocks.2.feedforward.3.bias f4 [4]
00000000: c317 aebc bc8e 023e 3321 2c3e 0bbb b23d
-0.021251565 0.12749761 0.1680954 0.08727082

blocks.3.ln1.weight f4 [4]
00000000: 033f af3f 943a 893f 85bb 7b3f 23f6 023f
1.3691105 1.0721002 0.9833301 0.51156825

blocks.3.ln1.bias f4 [4]
00000000: b9d6 5e3c af2b 7ebc f80c d2bb c3ad 473c
0.013600999 -0.015513345 -0.0064102374 0.012187424

blocks.3.msa.w_q.weight f4 [4, 4]
00000000: ac8b 1c3e 4cf6 173e e30b 293e 9c57 4b3e
00000010: e4df c6bd f9f2 8f3e 4d6a 203d 4541 01be
00000020: 13da c73e fbbd f3bc 0394 89bd 5e76 2a3f
00000030: 53cd 773e f2c2 53bf 17d3 02bf 3c05 69be
0.15287656 0.14840049 0.1650844 0.19857639 -0.097106725 0.2811506 0.039163876 -0.12622555
0.39033565 -0.029753676 -0.06717684 0.66586864 0.24199419 -0.8271934 -0.5110335 -0.22755903

blocks.3.msa.w_k.weight f4 [4, 4]
00000000: 9c72 233e b369 a73e 8881 b63e d71d 6dbd
00000010: a04d 873e 6a8a d13d be51 c33e 50f8 d53d
00000020: 90a5 7abe 7551 2f3f 4ab6 96bd fd9d 1cbe
00000030: cb27 d5be 53e6 3b3f a21e 92be c729 84be
0.15961689 0.3269783 0.356457 -0.057889786 0.2642641 0.102314785 0.38148302 0.104477525
-0.2447722 0.6848367 -0.07358988 -0.15294643 -0.41631922 0.7339832 -0.28538996 -0.25813124

blocks.3.msa.w_v.weight f4 [4, 4]
00000000: 75c2 35bf 5241 d33e 1978 0f3d 3600 9d3e
00000010: f81b 2c3f 28f4 62be 6601 cdbe 585d cfbe
00000020: 0539 68be 6eb1 b73e efbd 4e3e 4810 1bbf
00000030: d109 69bf 8d31 1c3e 9bd9 e33e b979 83be
-0.7099984 0.41260773 0.035026643 0.30664223 0.67230177 -0.2216345 -0.4004013 -0.40500903
-0.22678001 0.35877556 0.20189641 -0.6057172 -0.91030604 0.15253277 0.44501957 -0.25678805

blocks.3.msa.w_o.weight f4 [4, 4]
00000000: 0106 44be 8a4b 513f 8906 6dbe 1edc 06bf
00000010: a80f 0fbf 44a5 203f cb03 a6be 4314 1dbf
00000020: a2c1 02bf 21c8 e9bd f4aa 22be bfb5 9fbd
00000030: 4db0 b13b 86b9 e2bd 762b c7be 5b6a 163e
-0.19142915 0.8175589 -0.23147024 -0.5267962 -0.55883265 0.62752175 -0.3242477 -0.6135904
-0.5107671 -0.11415125 -0.15885526 -0.07798337 0.005422628 -0.11070542 -0.38900346 0.14689009

blocks.3.msa.w_o.bias f4 [4]
00000000: 7b83 5bbe 0a7b c73c 9505 03be 38c1 573e
-0.21436875 0.024350662 -0.12795098 0.21069801

blocks.3.ln2.weight f4 [4]
00000000: 593b 203f 95af 803f f99e 5c3f 6488 983f
0.6259056 1.0053583 0.86180073 1.1916623

blocks.3.ln2.bias f4 [4]
00000000: 0a4a 39be 4803 673e 6290 773c 8bdb d33d
-0.1809465 0.22559845 0.015110107 0.10344609
