weights/202305161423.pth (torch, 215624 bytes, 419 tensors)

inp.pos_emb f4 [1, 64, 4]
00000000: 7b43 9e3c 6d00 50bf 48e4 4cbf 392b c2bf
00000010: c86b 943f 742f 2ebf 7211 d63f 6b38 cc3e
00000020: e647 973f db3f 94bf 35db efbe 9abb 84bf
00000030: 9558 b6bf 94c5 5a3f f98b d2bf ad63 613e
00000040: d499 143e 4702 993d aa2c 17be 3431 253f
00000050: 4499 a2bf b48f 983e d30e ddbe 0afe 1dbf
00000060: 828a b2bf 7c53 8dbf e33e 813f f2e2 17bf
00000070: 5f9a 2e3f a966 b6bf ec22 883e eb8a 97bf
00000080: d664 15bf 4de8 9d3f 6119 60bf e225 a2bd
00000090: d68c 68bf fed5 c43f ab49 06be 2fb3 583f
000000a0: f7d3 5c3f c691 4c3f 2b5c 70bd d744 b2bf
000000b0: 3648 8abe 1e66 1d40 0a89 0940 f6ca 2bbf
000000c0: e924 283f adf2 aabf a765 303f 24e5 e8bf
000000d0: 4efc 893f 190a 78bf 854b 123f c995 8f3f
000000e0: 297e f43c 6f73 dd3a 51d0 1640 d5b8 78be
000000f0: b463 aebe 65b9 7abe f125 88be a74f c93e
00000100: 4203 5dbf 8d4c 4b3f 29a9 3e3e ae0c 0bbf
00000110: 1c81 f6be 6d20 973f 5676 33bf d7c3 ef3f
00000120: 93cc b93f 580b 0fbf a523 a63c dbf6 843f
00000130: f890 8cbf da11 b2be 2531 543f f67d 52bf
00000140: 90b9 153f 90e4 aebe c12c e2be c367 b2bd
00000150: 01bd de3e 642b 2fbf f8c3 cf3f 6836 193f
00000160: 86be fabf 6bda 793f 59e6 703f 4550 65bf
00000170: 7783 833e c832 073f 20c3 89bf dd43 8bbe
00000180: 623a 0cbf 5e54 de3e 3616 9abe ecda b5bf
00000190: 0bd7 babf 85f2 34be 2655 b1bf c2c5 3ebf
000001a0: 6311 893f 5296 a9bc ee2e 30bd 9bf9 6e3e
000001b0: 7441 39bf 2213 b43f f6ff 6e3e f5cc 18bf
000001c0: 5439 51bd b16d d03f cc4b d83d f3ed 4bbf
000001d0: b37f 1e3f 3639 a43f f777 c0be 9dbf 133f
000001e0: e6e4 663e a36a bc3e 25e2 1dbe 49a8 bf3e
000001f0: fc6c c53e 5906 72be 1625 f5be dafe 1c3e
00000200: 77aa 0cbf 00bb a1bf 5103 2e3f e983 d7bf
00000210: de10 5cbf c4b0 58bf eecf 953d 7d6e eebe
00000220: cec8 4e3f 046c f1bf 9846 eabe de85 473f
00000230: 080a 97bf a1d6 a73d 4809 39bf d968 e33f
00000240: 2934 443d ca1a 0f3f 4b38 e0be 138e a7bf
00000250: 0948 19bf f272 95bf e34c 99be 1c03 9cbf
00000260: bd39 ec3d 27fb 2240 ba72 143f 8675 b6be
00000270: 03db 2dbf 8222 de3e a588 44bf 0abb 373f
00000280: eb04 953f 38ec 0cc0 3baa af3e bede cd3f
00000290: c657 ee3c ec13 153f 9108 7f3f e72b 0c3e
000002a0: 3343 6dbf 0eb2 6abf 07f7 0dbf 435f 8f3f
000002b0: 0c35 29bf 311a 2abd 31f7 f33f 6a05 e53f
000002c0: b814 0cbe a41c 503f 039a a93f 6090 283c
000002d0: da9b 4fbf 9c2f b03f 9656 833f b8dc d33f
000002e0: 58df f9bf 834f cabf 6cd5 51bf 5c7a 2abf
000002f0: 803e 293f e727 e33e feff ed3d cde8 8bbf
00000300: 7878 323f 0b73 6d3f b2f9 62bf b2a8 b4be
00000310: f37e d23f 39c8 adbf b70e cd3e 3436 04bf
00000320: 2378 853e 3c11 f6bf 633c 893e 1083 183e
00000330: 0ce9 903f ca72 7b3f 2f23 15be 1531 c5be
00000340: fa33 90bf 8775 c9bd e8cc 313f f5dc a63f
00000350: 4aba edbd 00ce b1be fea3 0840 df7e cf3f
00000360: 94b4 c5bf 7c96 a63f 0a49 ecbf 1f3f dbbe
00000370: 9c91 1940 a89e 483e 935d bc3e 80e3 283e
00000380: fadc 9cbf 737e d13f ae13 b8bf 12ba 723f
00000390: a9da e0bf 7d2d 9bbf fb50 f1bf 3e4f e93e
000003a0: 51db 1cbf 13e7 acbe 26ba afbe 3020 42be
000003b0: ca0b 1b3e afe4 2140 d498 bdbe 3800 103f
000003c0: eb48 c33e 4e1e 28c0 8bbb 1abf 2332 56bf
000003d0: 6e9c 1e3f 9b55 613f 5cf0 563f 9d1f a83f
000003e0: ad9b 2cbf a91a 0cbe 2f16 f13f f060 5d3f
000003f0: 5bab e53e cf5f f5bf 070d bfbe 7b2c 223f
0.019319287 -0.8125065 -0.8003583 -1.516944 1.1595392 -0.6804116 1.6724074 0.39886793
1.1818817 -1.1581987 -0.4684693 -1.0369751 -1.4245783 0.8545773 -1.6448966 0.2201068
0.14511806 0.074711375 -0.14763132 0.64528203 -1.2703023 0.29797137 -0.43175372 -0.6171576
-1.3948519 -1.1041102 1.0097317 -0.59330666 0.682043 -1.4250079 0.26589143 -1.1839269
-0.5835699 1.2336518 -0.87538725 -0.07917382 -0.908399 1.5377805 -0.1311404 0.8464841
0.8626093 0.7990993 -0.05868165 -1.3927258 -0.27008218 2.4593577 2.1489892 -0.6710657
0.6568132 -1.3355309 0.6890511 -1.8194928 1.0780122 -0.9689041 0.57146484 1.1217586
0.029845314 0.0016895364 2.3564646 -0.24289258 -0.34060442 -0.24484785 -0.26591447 0.39318582
-0.86333096 0.7941368 0.18619217 -0.5431622 -0.48145378 1.180677 -0.7010244 1.873164
1.4515556 -0.55876684 0.020280669 1.0387834 -1.0981741 -0.34779245 0.8288749 -0.8222345
0.5848627 -0.34158754 -0.4417477 -0.08711197 0.43503574 -0.68425584 1.623168 0.5984864
-1.9589393 0.97598904 0.9410148 -0.89575607 0.25686237 0.5281186 -1.0762672 -0.27200213
-0.54776585 0.43423742 -0.3009507 -1.4207435 -1.4596876 -0.17670639 -1.385411 -0.74520504
1.0708431 -0.020701561 -0.043013506 0.23337404 -0.723655 1.4068339 0.23339829 -0.5968774
-0.051080063 1.6283475 0.10561332 -0.79659957 0.61913604 1.2829959 -0.37591526 0.57714254
0.22548255 0.36800107 -0.15418299 0.3743308 0.3855971 -0.23635234 -0.47879857 0.15331593
-0.5494761 -1.2635193 0.6797381 -1.6837131 -0.8596324 -0.8464472 0.0731505 -0.4656867
0.80775154 -1.8861089 -0.45756984 0.7793864 -1.1799936 0.08195234 -0.7227979 1.7766372
0.047901306 0.5590025 -0.43792948 -1.3090233 -0.5987554 -1.1675704 -0.29941472 -1.2188449
0.1153445 2.5465791 0.5798756 -0.35636538 -0.6791231 0.43385702 -0.76771003 0.71769774
1.1642126 -2.2019176 0.34309563 1.60836 0.029094588 0.58233523 0.99622446 0.13688622
-0.9268066 -0.9167794 -0.5545506 1.1200947 -0.6609657 -0.041528884 1.9059812 1.7892277
-0.13679779 0.812937 1.3250126 0.010288328 -0.81097186 1.3764529 1.0260799 1.6551733
-1.9521284 -1.5805515 -0.8196628 -0.66592956 0.6611099 0.4436638 0.11621092 -1.093042
0.6971507 0.92753667 -0.88662255 -0.35284954 1.6444992 -1.3576728 0.4005029 -0.5164521
0.2606822 -1.922401 0.26803884 0.14893746 1.132112 0.9822203 -0.14564203 -0.3851401
-1.1265862 -0.0983687 0.6945329 1.3036181 -0.116077974 -0.34727478 2.1350093 1.6210593
-1.5445733 1.3014674 -1.845979 -0.42821595 2.3995123 0.19591773 0.3679014 0.16493034
-1.2254937 1.6366714 -1.4381006 0.9481517 -1.756673 -1.2123257 -1.8852838 0.4556827
-0.6127215 -0.33770046 -0.34321707 -0.18957591 0.15141216 2.5295827 -0.3703066 0.56250334
0.3814157 -2.6268497 -0.6044242 -0.8367025 0.6195744 0.8802125 0.8396051 1.3134648
-0.6742504 -0.13682045 1.8834895 0.8647604 0.44857296 -1.9169863 -0.37314627 0.6334912

inp.emb.weight f4 [4, 135]
00000000: 223f 603d dab6 cbbd 9ed3 133d 582a 93bd
00000010: 69fb 6ebc ece4 8ebd 2c43 733d 8876 213c
00000020: d6e5 993d 3b54 043d 6da8 27bd 6070 5d3c
00000030: febf 06bd 4885 4fbc 134a 0abd 4bfa 1b3d
00000040: 0127 a03d dca1 423d 8029 5f3d 5ac1 083d
00000050: d0c8 a137 3aef 2f3d 0875 9abd 59ec 8ebd
00000060: 21f4 4dbd d7c3 1abd 35d6 47bd 9d53 72bc
00000070: 820e d8bc 0a82 183d 6ef4 afbc f54a 8a3d
00000080: 9184 553d e09d b1bb 6ecb bdbd 4e4c 823c
00000090: 5cb7 66bd a55c 65bd 624e 853d 5fa8 b53d
000000a0: 9926 a33c 91a9 a4bd a01a 443c c06d 7dbd
000000b0: 6629 dfbc dd77 a63d a4cf 903d 67b3 4e3d
000000c0: 1ae7 a2bc d1c6 0a3d 0f62 96bc 9778 0bbd
000000d0: 42f9 9a3d 48b7 96bb 3c76 24bd ae68 1e3d
000000e0: 90cb 5b3c 0b4a 2c3d d4df 48bb a072 343d
000000f0: 4ed0 56bd f0b4 92bd 8fe5 07bd 11fe 9ebd
00000100: 2fc8 3abd ed19 933d 62b4 0fbd a1e7 823d
00000110: 84ac a73c a224 923d 5d8f 5d3d 7298 12bd
00000120: 39fa 9f3d 53b9 103d 5d41 78bd 31c1 af3d
00000130: 8c2c 4c3d 5a12 63bd 3b95 1fbd 1c7b 993d
00000140: 58d3 40bb f78a 94bd 8bc1 6f3d d6be 6e3c
00000150: 24e1 d13c 8bcf 6dbc e0c7 85bd de73 1abd
00000160: f83a 383d 4cd1 13bd 41a7 72bd 7488 5ebd
00000170: e258 20bd 81ea 4cbd 20ff 52bd beff e0bc
00000180: 6cde ecbc 9ccb 4ebc 80d2 22bd e608 99bd
00000190: bb6e 8a3d 0640 55bb 7b24 abbd e4a2 fdbc
000001a0: 22a5 103a 68a7 d73c c73d f73c 0551 b6bc
000001b0: c2dd 3dbd 7860 89bd 1cdf b43c 9ff5 993d
000001c0: 8e39 14bc db42 583d d91d 01bd 7d9c 453d
000001d0: c6f4 12bd 4e76 343d a1f1 6dbd ad81 a13d
000001e0: 0e1d b3bb 6860 29bd 3afb 8cbd e017 aebb
000001f0: f3bd a7bd b6c9 eabc 7563 7ebd 8c28 9c3c
00000200: 7ee8 d03c 610d 2d3c e855 64bc a29b 383c
00000210: 78d2 a53d 4ca5 203d ca52 32bc da37 a8bd
00000220: b97e d13c 9853 8e3d f747 41bc 1038 033c
00000230: 914a 923d ab49 eb3c ac40 d0bb 4c7b 1dbd
00000240: 3bad 583d a327 3d3d e02c 0bbd c279 5a3c
00000250: 0a82 a7bd 990e 023d e834 b6bb e788 be3c
00000260: 97c5 95bd d0dc 1fbc b750 69bd 2891 5abd
00000270: ec56 963d ce9f 12bd 2cc4 8a3d 35aa a1bc
00000280: f90c 19bd 7cf6 7ebd 66e2 993c 3ef5 08bd
00000290: a0da f3bc 1d15 b53d 1a1c 1cbd 8c8d 803d
000002a0: ef44 71bd 44e4 77bd 9c2c ac3c 7f39 9cbd
000002b0: fb8a 653d e407 18bd f7e1 38bd 8428 963d
000002c0: f69f a53c 1625 043d 4204 a1bc 41c1 e7bc
000002d0: b080 2cbd 5a38 903a afd3 10bd 867c fcbc
000002e0: edf7 333d 628a bd3c 25b8 6bbb a3b6 053d
000002f0: 1c09 35bd 78d4 273c 7237 2a3d 909c 6d3b
00000300: 3d8c 95bc 5b3c c3bb fc95 8dbd 8b69 953d
00000310: 8e89 8f3d 40e4 bebc 61f7 b93c bee3 b5bd
00000320: 1684 6b3d fe4c f7bc 82bf cc3c 614d 3a3d
00000330: 8d5f ac3b 6a2e 45bd be4a 18bc b6de 07bd
00000340: 68f7 d4bc 1555 0f3b c9bb 2bbd 493f 39bc
00000350: b07c f5bc fad8 733d 1412 083d 659a f13c
00000360: fdad a33d 4020 193d 0405 07bc 09ee d2bb
00000370: b9ed 8f3d adbe b6bc 14dd 6a3d 50e4 5abd
00000380: 6860 8f3d 70ae 0b3d 2ed3 ccba ddcc 983d
00000390: 67d2 1b3d b798 703d 9a5e 9f3d e53a 93bc
000003a0: 3eb4 773d 6edc b7bb 018a 9d3d d816 cd3c
000003b0: 5fc9 a3bc 40a8 b5bb 8237 1abd 9d97 86bd
000003c0: e183 793d 592f 30bd 31bb ad3b 015c bdbc
000003d0: 8036 473d 70f5 3fbd 9bd7 693d 00d5 ed3c
000003e0: f11a 233d e557 6ebd 13fa 21bd fea9 bb3c
000003f0: 3d96 a3bc aca7 74bc c5d2 54bb 6a96 6cbc
0.05474771 -0.099469855 0.036090486 -0.07185811 -0.014586308 -0.06977257 0.059390232 0.00985492
0.07514541 0.03230689 -0.040932108 0.013515562 -0.03289794 -0.012666054 -0.03376205 0.038080495
0.078199394 0.047517642 0.054482937 0.03338752 1.9286206e-05 0.042952754 -0.07541853 -0.069786735
-0.050281648 -0.037784424 -0.048788268 -0.014790443 -0.026374105 0.03723339 -0.021478858 0.06752578
0.05212838 -0.0054204315 -0.09267317 0.015905526 -0.05632721 -0.055996556 0.06509091 0.08870005
0.019915866 -0.08040155 0.0119692385 -0.061872244 -0.02724142 0.08128331 0.07070854 0.05046406
-0.019885588 0.033881012 -0.018357305 -0.03405055 0.075670734 -0.0045994855 -0.04015182 0.03867405
0.013415232 0.0420628 -0.003065099 0.044054627 -0.05244475 -0.07163417 -0.03317791 -0.07763303
-0.045601066 0.07182679 -0.035084136 0.06391836 0.020468004 0.071358934 0.0540918 -0.035789914
0.07811398 0.03533299 -0.06060921 0.0858177 0.04984717 -0.055437423 -0.038960677 0.074941844
-0.0029422846 -0.07253068 0.058534186 0.014571866 0.02562005 -0.014514814 -0.06532264 -0.037708156
0.044978112 -0.036088273 -0.059241537 -0.05432935 -0.039147265 -0.050028328 -0.051512837 -0.027465697
-0.028914653 -0.012621786 -0.03975153 -0.074724 0.067594014 -0.0032539382 -0.083565675 -0.030961461
0.0005517771 0.026324943 0.030180825 -0.02225543 -0.046354063 -0.06707853 0.022079043 0.07517552
-0.009046925 0.052798133 -0.031522606 0.048244942 -0.035877965 0.044058137 -0.058091763 0.07886062
-0.00546611 -0.041351706 -0.06883855 -0.0053129047 -0.08190527 -0.028660636 -0.06210657 0.019062303
0.025501486 0.010562272 -0.013936497 0.0112675745 0.08096784 0.03922014 -0.010883996 -0.08213778
0.025573121 0.06949538 -0.011796943 0.008008972 0.07143129 0.028721651 -0.0063553657 -0.038447663
0.05289958 0.04618038 -0.033978343 0.013334693 -0.081791 0.031752203 -0.005560506 0.02325864
-0.07313078 -0.009757236 -0.05696174 -0.053361088 0.07340798 -0.035796933 0.06775698 -0.019734481
-0.037365887 -0.062246785 0.018784713 -0.033437006 -0.029767334 0.08841918 -0.038112737 0.06276998
-0.05890363 -0.060520425 0.021017365 -0.07628154 0.056040745 -0.0371169 -0.045137372 0.073319465
0.020217877 0.03226193 -0.01965535 -0.028290393 -0.042114913 0.0011003122 -0.035358127 -0.030821096
0.043937612 0.023137275 -0.0035967913 0.03264488 -0.04419814 0.010243528 0.041556783 0.0036256649
-0.018255347 -0.0059581227 -0.06913373 0.07295521 0.07008658 -0.023302197 0.022700967 -0.08881329
0.057499014 -0.03018808 0.024993662 0.04548395 0.005260414 -0.048139967 -0.009295164 -0.033171378
-0.025996879 0.0021870781 -0.041927133 -0.011306592 -0.029966682 0.059533097 0.033220366 0.029492566
0.0799217 0.03738427 -0.008240942 -0.0064370674 0.07027764 -0.022307718 0.057339743 -0.053440392
0.0700081 0.034101903 -0.0015626901 0.074609496 0.038042452 0.05873939 0.07781716 -0.017972419
0.060474627 -0.005610994 0.07692338 0.025035307 -0.019993482 -0.0055437386 -0.037650593 -0.06571887
0.060916785 -0.043013904 0.005301856 -0.02311516 0.04863596 -0.046864927 0.057090383 0.02903223
0.039820615 -0.05818929 -0.03954513 0.022908207 -0.0199691 -0.014932554 -0.0032474261 -0.014440158

blocks.0.ln1.weight f4 [4]
00000000: cf7c 7f3f 36fc 7f3f 6b70 7e3f 66a5 7f3f
0.9979982 0.9999422 0.99390286 0.99861753

blocks.0.ln1.bias f4 [4]
00000000: bab9 72bc 05e1 8cbb 4e6d 0d3b e820 fbbc
-0.0148147885 -0.0042992854 0.0021580043 -0.03065534

blocks.0.msa.w_q.weight f4 [4, 4]
00000000: 243d 46bd ba7a 62be dbc1 80be b7ac e8bd
00000010: 5e74 96be c70d 10bd 1a27 abbe f646 bbbe
00000020: dc06 a73e 1ebc d9bc 5df6 f0be 82c2 b33e
00000030: 3dc4 efbe d169 693e f9f3 4cbe 30b8 e8be
-0.048398152 -0.22117129 -0.251479 -0.11361068 -0.29385656 -0.03516939 -0.3342827 -0.36577576
0.3262242 -0.02657896 -0.4706296 0.35109335 -0.46829405 0.22794272 -0.20014943 -0.45453024

blocks.0.msa.w_k.weight f4 [4, 4]
00000000: 4cb6 c3be c178 9d3e 0b94 27be 2cd2 ea3e
00000010: 157d acbd 0a75 99be 4681 b7be 969e 02bf
00000020: f942 93be 4c5c 8cbe 1370 fcbe 92ac 06bd
00000030: 29de a23e 3fcc 14be 12fa 483e 6682 533e
-0.3822502 0.3075619 -0.16365068 0.45863473 -0.08422295 -0.29972106 -0.35840815 -0.5102323
-0.28762034 -0.27414167 -0.49304256 -0.03287942 0.3181012 -0.14531039 0.19626644 0.20655212

blocks.0.msa.w_v.weight f4 [4, 4]
00000000: 01ed a9bd 5472 f7be bebc ca3d 6345 8d3d
00000010: 21c9 c63e bbcf ac3d 2e6f c43d 612e e33e
00000020: 91c2 37be 0633 81be 4cd2 83be 02a3 463e
00000030: fdbe cabd 5281 29be 3879 e23e 0fe9 e9be
-0.08297158 -0.48329413 0.09899281 0.06898 0.38825324 0.08438059 0.09591518 0.44371322
-0.17945315 -0.2523424 -0.2574638 0.1939812 -0.098997094 -0.16553238 0.44233108 -0.45685622

blocks.0.msa.w_o.weight f4 [4, 4]
00000000: 1a1c b1be d54a 99bd b864 8f3e 45dc dfbe
00000010: 6880 e9be ba64 6d3e 1c55 563e 268e a9bd
00000020: 9350 313e 3062 d93e ef5d 80be 1c96 00bc
00000030: fc04 e33e a198 473e 3e9c c0be 94f0 17be
-0.34591752 -0.07484976 0.2800653 -0.4372274 -0.4560578 0.23182955 0.20930904 -0.08279066
0.17315893 0.42457724 -0.25071666 -0.007848289 0.4433974 0.19491817 -0.37619203 -0.14837867

blocks.0.msa.w_o.bias f4 [4]
00000000: b05e 8fbe 00a8 e23d 4f0b e3bd 849e 9abe
-0.28001928 0.110672 -0.11086141 -0.30199063

blocks.0.ln2.weight f4 [4]
00000000: f052 7f3f 3f08 813f aed6 7f3f 70c3 7e3f
0.9973593 1.0080642 0.9993695 0.99516964

blocks.0.ln2.bias f4 [4]
00000000: bf9d 813b b0ab ca3b b807 be3b add4 873a
0.0039555724 0.0061850175 0.00579926 0.0010363065

blocks.0.feedforward.0.weight f4 [40, 4]
00000000: 85d8 cb3e 3265 e7bd 0290 d2be 981d 303d
00000010: b650 04be 8eff 963d 77e6 a93c 6e56 1abe
00000020: 2e5d 70be cc0f ab3e 9228 c3bd 0e52 fd3e
00000030: 31df c3be 218e aabe ea16 973d 530c b73e
00000040: bcac 90bc 0c47 5a3e 8f27 4d3e 9279 91be
00000050: e53c 8c3d 4dea f13e 506a 52be c894 0c3e
00000060: 8ff9 ed3e 0b57 be3e 56c5 673e 1df0 5a3e
00000070: 40d1 fbbe 3f73 16bc 6dbb 99be 5bb3 ae3e
00000080: 05c9 a53d b0dc a1be 89a9 d1be 4a9f 6d3e
00000090: 75c6 193d c367 6abe 72d8 ee3e 32c4 91be
000000a0: dd2e 823e cea6 b43e 1be0 d6be ed62 823d
000000b0: 744e 6a3e ee9a febe 4200 58be 958a adbe
000000c0: cafd 74be 6770 e13e 214a 643e 6cb2 9ebe
000000d0: 8b1a c73c 570c a23c f36d 9abe d0c1 eabd
000000e0: 0fda 623e 1644 cbbe 5e39 7fbe c83e 55be
000000f0: 7c00 943e 045b 053d 558b b0be 641a adbe
00000100: 2150 f83e ef0c 45be f6ea 1abc ffd4 fc3d
00000110: 6312 a1be 0c40 cdbe d523 d93e 7623 973e
00000120: 2fe3 183e 7dc2 0dbe 920e 9fbe b303 f9bd
00000130: 3045 e4bd bb70 ad3e 8114 f7be 38f9 e5be
00000140: 458c fe3d f7de 1d3d 7046 b1be 5120 f9be
00000150: 5576 30be fcc0 073e 9e24 b13e fd3a cdbe
00000160: 2043 883e 6604 6abe ef7c 483e 480e efbe
00000170: 51d5 a4be b521 ddbe 1240 d53e bbf4 d7be
00000180: dd71 793e 963a 28bd 4969 773d d2c4 f9bd
00000190: e1c8 bbbe 34a5 863d 8ac1 e6be 8a34 f7bd
000001a0: 25fc 95be ff89 5e3e bc3d 96be 22d3 3a3e
000001b0: 17f1 c23e 90da 32be 099a 8d3e fe20 233e
000001c0: 4f1f 91bd 14b8 97bb ea4d 883e 95bd cb3e
000001d0: bd92 02bc 5ea5 febe f351 823d 0c0d fabd
000001e0: c546 f1bd 6b11 e9be 2d4c 373c 7d68 93be
000001f0: 31ae a9be b933 72be 0cb4 57bc b568 cdbb
00000200: 11da bbbe 90b3 8a3e 0b5c c3be 51b8 0cbc
00000210: 4e72 f9bc 28c6 053f d790 85bd 6493 29bd
00000220: 4321 d2bd e769 c23d 9498 f63d 2c97 c2be
00000230: d307 ab3e 48bb 803e f3fd ca3e 7459 debe
00000240: 0113 e63e ddfa 21bc 0f3f d73e bb8d e13d
00000250: 66d0 f5be da69 aabd 3a6c d5bc 7663 89bd
00000260: 14cc f2be 518e b33e fac7 c13e baed 243e
00000270: a529 6abe 0123 f6be 15cf e4be 4cfc b3be
0.3981363 -0.11298598 -0.41125494 0.042996973 -0.12921414 0.07372962 0.020739777 -0.15072033
-0.23473045 0.3341049 -0.095292225 0.49476665 -0.3825622 -0.3331156 0.073774174 0.3575159
-0.017660491 0.21316165 0.20034622 -0.28413063 0.06847552 0.4724907 -0.20548368 0.1372863
0.4647946 0.37175784 0.22633871 0.21380658 -0.49183083 -0.00918275 -0.30025807 0.34121212
0.08094982 -0.31613684 -0.40949658 0.23205295 0.03754278 -0.22891144 0.4664951 -0.28469998
0.2542638 0.35283512 -0.41967854 0.06366525 0.2288149 -0.49727577 -0.21093848 -0.33894792
-0.23924938 0.4403107 0.22293903 -0.309955 0.024304649 0.019781275 -0.3016201 -0.11462748
0.22153495 -0.39700383 -0.24924228 -0.2082473 0.2890662 0.032557502 -0.34481302 -0.33809197
0.48498634 -0.19243215 -0.009455433 0.12345313 -0.3145934 -0.40087926 0.4241015 0.29519242
0.14930414 -0.13843723 -0.31065804 -0.12158909 -0.11146009 0.3387507 -0.4825783 -0.449167
0.12429098 0.038542714 -0.34624052 -0.48657468 -0.1723264 0.13257211 0.3459825 -0.40084067
0.26613712 -0.2285324 0.19578908 -0.46690583 -0.32193998 -0.4318978 0.41650444 -0.42178902
0.24359842 -0.041071497 0.060403142 -0.121957436 -0.36676696 0.06574479 -0.45069534 -0.12070568
-0.29293934 0.21732329 -0.29343975 0.18244603 0.38074562 -0.17466187 0.27656582 0.15930554
-0.0708605 -0.004630098 0.26621944 0.39793077 -0.007969555 -0.4973554 0.06363287 -0.1220952
-0.11781076 -0.455211 0.011187595 -0.28790656 -0.3314071 -0.23652543 -0.013165485 -0.0062685856
-0.3668981 0.2709012 -0.3815616 -0.008588866 -0.030450013 0.5225549 -0.06521767 -0.04140033
-0.102602504 0.094928555 0.12040821 -0.3800596 0.33404407 0.25142884 0.39646873 -0.43427622
0.44936374 -0.009886471 0.42040297 0.11013361 -0.48010558 -0.08320971 -0.026052583 -0.06708424
-0.47421324 0.35069516 0.37847883 0.1610631 -0.22867449 -0.4807358 -0.4468924 -0.35153425

blocks.0.feedforward.0.bias f4 [40]
00000000: 16fd d4be 4e5c e33c b23a 83bd 0116 ac3e
00000010: 1228 813d c5a2 103e 9389 b53e aad3 5f3e
00000020: 37ca a63e c2c3 da3e d8d5 5f3e b39b 973e
00000030: 1dca a13d cb93 733d 72dd 11be 8995 b2be
00000040: b04a c4be 603c 013e 7bed ad3e 1dc3 35be
00000050: 5a84 063e 9f06 19be 79b5 c03d d143 973d
00000060: 0679 b5be 2be1 dd3e 02cc c6be 4241 bcbd
00000070: c238 1dbe 6b69 eb3e 3d5a 9c3e 0067 dcbe
00000080: eac0 8bbd 8f13 763d be1f 82bd dc4c e23e
00000090: ce14 30be 253b 15be 678d 643e 0e10 c53e
-0.4159934 0.027753975 -0.064076796 0.33610538 0.06306471 0.14124592 0.35456523 0.21858087
0.32576153 0.42727476 0.21858919 0.29610977 0.07899878 0.05946712 -0.14244631 -0.3487971
-0.38338232 0.12620687 0.33970246 -0.17750211 0.13136426 -0.14943932 0.09409613 0.07385982
-0.35443896 0.43335852 -0.3882752 -0.091921344 -0.15353683 0.45978865 0.30537596 -0.43047333
-0.06823905 0.060077246 -0.063537106 0.44199264 -0.17195436 -0.14573343 0.22319566 0.3848881

blocks.0.feedforward.3.weight f4 [4, 40]
00000000: 2ead 803d 7e70 f53d f03e 04be caa4 46bd
00000010: 78bb fbbd 6396 f2bc 35e5 14be fb41 0dbc
00000020: b537 babd 7d1c 01bd e162 49bd 078c eabd
00000030: b5d7 d7bd 7574 fd3c 2c8a 3e3d 8751 8a3d
00000040: 1ac8 1e3e 43a8 f33d d74d 0c3e 9c58 933c
00000050: 2a67 9bbd 34f2 c7bc aa5f a4bd 4472 02bd
00000060: 7f2c bb3d bd2c 1abd 29f1 243e c585 7cbd
00000070: d4d7 873d 9adc 48bd bb92 ca3c 1ef4 d03d
00000080: 1e9f 113d f2bc 03be 49de 0c3e 875e 28bd
00000090: 716b b23d fa2f 57bd 9352 9f3d 8a3f 2fbd
000000a0: 983f 90bd 42d6 21be 4b06 dc3d fe28 f7bd
000000b0: e743 cabd 63bc 96bd d744 aa3d 464e a53d
000000c0: 5058 2b3c cc6e 29bd d78c cc3d 8b3d 9b3d
000000d0: fa15 87bd 5d59 063e ed01 1c3e 08a3 43bd
000000e0: bc12 9fbd 83bf 033e 5621 e5bd 6e78 b93d
000000f0: 4df6 6abd 3d96 173d 0773 ebbd 991c d23c
00000100: 6a4f 54bd 4e5b 2ebe 8531 9bbd 692e 923b
00000110: a2b5 e73d 6409 0cbd 0998 b8bd 76ef 0b3e
00000120: 5edc 063e cea1 aebd 2d6f 143c f7ba 00be
00000130: 2117 e4bd 4bfd a4bd 56b0 783d 0e89 7d3d
00000140: ee34 2dbc 500c 0fbe d6ad 0a3e 1692 fab9
00000150: 6f19 b73d 171b 94bd 0819 1dbe 7bed dc3d
00000160: 9a83 d43d eb2e 01be e5a3 3f3d b2a9 d73d
00000170: 8722 b5bc a952 133e 32d6 e83d 118b 0abe
00000180: 384b 08be 472a bc3d 79a2 5dbc a1fe 94bb
00000190: 434e 503a b9cd 963c 485f 1abd 3225 903d
000001a0: 7c61 ee3d 4cf5 19be 4833 dcbd 1097 7e3c
000001b0: fdc8 bdbd 1e3a 0c3e c8e0 f83d 5cf4 0ebc
000001c0: b2fa d33d 455c 59bd 46cc 1d3d 8cf3 6f3d
000001d0: d94e 0dbe bd1c 013e d5a4 6abc e671 d5bd
000001e0: 3b96 06bd 6d77 c1bd d7f5 c7bd 033e 03be
000001f0: 507c 1bbe e94a e73c 7940 513d 415a 1e3e
00000200: 4a9b 9fbd fe00 f73d 937d 7dbd 2972 a7bd
00000210: dbdb fc3d 176c da3d 0ea0 9d3d 69d2 7ebd
00000220: d214 e43c c496 dbbd 9a7e 003d d941 943d
00000230: 974a 50bd f7a6 fe3c 8657 e33d d166 5abc
00000240: ff34 6b3d be4d 9dbd 5bb0 133e e739 13bd
00000250: 2077 f7bd e39a 123e 3f07 eabc 0ea8 c23d
00000260: b7be 523d 9007 2abd 0c55 fb3d 676b dabd
00000270: 204a 9abd a2a7 84bd 2224 7abd d9b7 01be
0.062830314 0.11984347 -0.12914634 -0.048497 -0.12291616 -0.029612726 -0.1454056 -0.008621688
-0.090926565 -0.03152131 -0.049166564 -0.11452489 -0.1053919 0.03093932 0.04651849 0.06753831
0.1550602 0.11897328 0.13701569 0.017986588 -0.07588036 -0.024407484 -0.08026059 -0.031847253
0.09139346 -0.037640322 0.1610762 -0.06165101 0.06632963 -0.049038507 0.02472817 0.10202812
0.035552137 -0.12865046 0.1375667 -0.041105773 0.08711899 -0.05253599 0.07779422 -0.042785205
-0.070433795 -0.15804389 0.10743388 -0.120683655 -0.098762326 -0.07360151 0.083139114 0.0807157
0.010458067 -0.04136543 0.099878006 0.07580098 -0.065959886 0.13120027 0.1523511 -0.0477629
-0.07767245 0.12866025 -0.11187999 0.09056173 -0.057363797 0.037008513 -0.11496549 0.025648402
-0.051833548 -0.17027017 -0.075778045 0.004461099 0.113139406 -0.034188643 -0.090133734 0.13665566
0.13170001 -0.085269555 0.0090597095 -0.12571321 -0.11137224 -0.08056124 0.060715042 0.061898284
-0.010571701 -0.1396954 0.13542876 -0.00047792558 0.08940398 -0.072317295 -0.1534158 0.10787483
0.103766635 -0.12615554 0.04678716 0.10530414 -0.02211119 0.14387001 0.113689795 -0.13529612
-0.13309944 0.09187751 -0.013527506 -0.0045469557 0.0007946232 0.018408643 -0.037688524 0.070383444
0.116396874 -0.1503498 -0.107519686 0.015538946 -0.09266851 0.13694045 0.121522486 -0.008725252
0.10350551 -0.05306651 0.03852489 0.058581874 -0.13799609 0.12608619 -0.014321526 -0.10422115
-0.032858115 -0.09446607 -0.09763687 -0.12816624 -0.1518414 0.028233962 0.051086877 0.15464117
-0.07793291 0.12060736 -0.061887335 -0.08176071 0.123466216 0.10665148 0.07696544 -0.06221238
0.02784196 -0.10722116 0.031370737 0.07239122 -0.050852384 0.031085474 0.11100678 -0.013330177
0.057423588 -0.07680844 0.14422743 -0.03594389 -0.12083268 0.14316897 -0.028567908 0.0950471
0.05145141 -0.04151112 0.12272081 -0.106650166 -0.075336695 -0.06477286 -0.061069615 -0.12667789

blocks.0.feedforward.3.bias f4 [4]
00000000: a854 6f3d fa46 de3d eed4 f8bd 3c42 953d
0.058430344 0.108533815 -0.12149988 0.07288024

blocks.1.ln1.weight f4 [4]
00000000: 6b0f 813f 1834 813f a6fd 7e3f 38c2 7e3f
1.008283 1.0094023 0.99605787 0.99515104

blocks.1.ln1.bias f4 [4]
00000000: 844a 663c 1ac4 cd3b 3b83 c5bb 6770 983b
0.014055852 0.0062794806 -0.006027607 0.0046520713

blocks.1.msa.w_q.weight f4 [4, 4]
00000000: 1252 c33e e693 1c3d 9b8b 283d df85 9b3d
00000010: 5995 3cbe 5d23 dcbe 88b0 dc3d 3a64 d8be
00000020: 8a38 de3e 8ca3 e63e c80d d93e 5c66 22be
00000030: e603 ea3c 6419 993e 1d11 463e 0394 22be
0.38148552 0.038226984 0.041148763 0.07593893 -0.18416347 -0.4299573 0.10775858 -0.42263967
0.4340251 0.4504665 0.42393327 -0.1585936 0.028566312 0.29902184 0.19342466 -0.15876774

blocks.1.msa.w_k.weight f4 [4, 4]
00000000: 5b60 fbbe 8ba0 b53e 6f9e 4a3d 98cf 88be
00000010: 170b f33d dd0e a8be c42e da3e 3670 883e
00000020: a398 f33e 8932 413e 9543 66be 1df2 f03e
00000030: 693a a4be 2684 94be 4188 e13e 21f7 9cbc
-0.4909695 0.35474047 0.0494675 -0.2672088 0.118673496 -0.3282384 0.42613804 0.2664811
0.4757739 0.18866934 -0.22486718 0.47059718 -0.32075813 -0.2900707 0.44049266 -0.019160809

blocks.1.msa.w_v.weight f4 [4, 4]
00000000: 0366 cd3d de00 e83e d8d1 b5be 3547 f23e
00000010: 41b7 9b3e 2332 4cbe 8908 c23e 8569 e5be
00000020: d514 44be d16b e4bd f8ca 783e 272d 02be
00000030: 91b0 b63e 088f 773e 9123 cb3e eccc 10be
0.10029223 0.45313162 -0.3551166 0.47319952 0.3041325 -0.19941 0.37897137 -0.44807068
-0.19148572 -0.11153377 0.24296176 -0.12712537 0.35681584 0.24175656 0.39675573 -0.14140671

blocks.1.msa.w_o.weight f4 [4, 4]
00000000: a8ad e5be 23ea 7ebe b3ef f83e 0896 3a3c
00000010: 9c9c cc3e 3209 bfbc 702a 5c3e 7fba 0fbd
00000020: 702a a2bc cb4d 9c3e 2eba 5e3d 072c d93d
00000030: 72bd 103e ec85 ee3c 32cf d0be 9545 653e
-0.44859052 -0.24894004 0.48620376 0.011388309 0.39963233 -0.023319814 0.21500564 -0.035089966
-0.019795626 0.305281 0.054376774 0.10604101 0.14134768 0.029116593 -0.40783077 0.22389825

blocks.1.msa.w_o.bias f4 [4]
00000000: 698a d2be 0f97 6a3e dd54 8b3d 35d4 6c3e
-0.41121224 0.22909187 0.06803296 0.23127826

blocks.1.ln2.weight f4 [4]
00000000: 1002 823f ad72 803f 2b77 813f 410e 7f3f
1.015688 1.0034996 1.0114492 0.99631125

blocks.1.ln2.bias f4 [4]
00000000: 580b 2bbb 31af e23a 3473 993c 5de0 933b
-0.002609929 0.0017294643 0.018731691 0.00451283

blocks.1.feedforward.0.weight f4 [40, 4]
00000000: db42 31bd be78 edbd 6f5f c43e 5a18 fb3d
00000010: bbee 05be a37e a9be 29cf f53e 880f 993e
00000020: 8224 dcbe bf46 94be afa9 b3be e60d bb3e
00000030: 8755 193d 3d93 e8be 3c73 a53e 410b 2e3e
00000040: a208 4fbe 3693 83be 4c74 e7be 5860 f1be
00000050: 6cb6 173e 886a fb3d a8f3 223e 6471 d8be
00000060: 9af9 9f3e fed4 c1bc 79cd c1bc 6395 a73d
00000070: 2a13 e9be baea 93be 3652 03be 2f06 193e
00000080: 8083 c9be 880e aabe dc4f 593e 7b9c 00bd
00000090: cc8e 5c3c cc2c 5fbe 60a0 b83e f46e 9cbe
000000a0: 5a0e f7be 0feb 1abe b554 e03c 41f7 a7be
000000b0: b4a8 65be ea9a 663e 5452 25be 8d97 2a3d
000000c0: 1f54 c3be ff61 8dbe af4c d43e d6b4 c03e
000000d0: 12e6 4fbe 277b f63e 3b82 ccbd e883 933e
000000e0: b12c b6be 7d4d e03e e9eb 963e d39d 00be
000000f0: 59b2 b43e f52c 2cbe f914 833e 48f5 bd3e
00000100: 5218 a13e f486 b0be 91ad c4bd 4264 dbbe
00000110: 3728 b23e dd4c e93e d8f6 b2be 90d6 02be
00000120: 9999 b63e 13e8 9fbe 8524 edbe 6e0c 6d3c
00000130: 8971 11bd f07d 0ebe 38cf 12bd 2f37 4abe
00000140: 5d72 fa3e 61a4 243e b056 1cbe 0f15 fc3e
00000150: c9af edbe 0646 023b a3b4 3d3e 1703 40be
00000160: ec71 c8be 2519 c83e 19d4 503d 0089 893e
00000170: c5eb a93e a718 f7be a06e bd3e 0874 6b3e
00000180: 7011 db3e 87b7 4bbe 9a47 fcbe ad7f b73d
00000190: 2fda d03e 4794 a83e dce0 edbe 17ae a43c
000001a0: 19a8 ca3d af02 15bd 32fb d6be bbbb 763e
000001b0: 32f8 36bd 1c59 623e 7e6b cc3c 6c12 223e
000001c0: df6a 993e 3a89 ab3e 5fa2 debd 225c c53e
000001d0: 1b82 ccbe 9601 d4bd 8166 493e e402 763e
000001e0: 3745 c9be faa4 4ebe ffcc fa3e e8eb 81bd
000001f0: 3951 143e 5293 b03e 01ab e9be 4862 aebe
00000200: e3b1 b0be cdd2 df3e f143 d4bd 0496 e9be
00000210: e70a 1dbd c829 633e 405c 45be cd89 5bbd
00000220: a0bf 77be 33e5 483c 8710 dd3e 0811 0bbe
00000230: 877d 173e 33b9 17be 6cb3 cfbe 8f1d 0fbd
00000240: 43db af3e 565e 423e 254c e23e 9df5 d6be
00000250: 4abe 623d bcc0 d63e 28ad 013f 0f1c 02be
00000260: c751 93bd 85f3 e23e 791a 3c3e 7ef3 5bbe
00000270: 522c c8be a971 31be d3c5 56be 7db8 6d3d
-0.04327665 -0.11595295 0.3835406 0.12260504 -0.1307935 -0.3310443 0.48009613 0.29894662
-0.42996603 -0.28960225 -0.35090396 0.3653404 0.03743508 -0.45424834 0.3231448 0.1699648
-0.20218137 -0.2569825 -0.45205915 -0.47143817 0.14815682 0.122761786 0.1591326 -0.4227401
0.31245118 -0.023661133 -0.023657547 0.0818279 -0.45522434 -0.2889002 -0.1282433 0.14943765
-0.3935814 -0.3321421 0.2122187 -0.03139923 0.01346178 -0.21794432 0.36059856 -0.305534
-0.48253137 -0.1512873 0.027384141 -0.32805827 -0.22427636 0.22520033 -0.16144687 0.041648436
-0.38150117 -0.27613828 0.41464755 0.37637967 -0.20302609 0.48140833 -0.09985777 0.28811574
-0.35580972 0.4380912 0.2947686 -0.12560205 0.35292318 -0.16814025 0.25601938 0.37101197
0.31463867 -0.3447796 -0.09603418 -0.42849928 0.34796306 0.45566455 -0.34953952 -0.12777162
0.3566406 -0.31231746 -0.46316925 0.0144682955 -0.035508666 -0.13915229 -0.03584215 -0.19747613
0.48915377 0.1607833 -0.15267444 0.49234816 -0.46423176 0.0019878163 0.18525939 -0.18751179
-0.39149415 0.39081684 0.050983522 0.26862335 0.3318769 -0.48260996 0.36998463 0.22993481
0.4278674 -0.19894229 -0.49273378 0.08959899 0.4079146 0.32925627 -0.46460617 0.020102544
0.09895343 -0.036379512 -0.41988522 0.24095051 -0.04467029 0.22104305 0.0249536 0.1582734
0.2996435 0.33503133 -0.108708136 0.38546854 -0.39943013 -0.10351865 0.19668008 0.2402454
-0.3931062 -0.20180121 0.48984525 -0.06343824 0.14484109 0.34487396 -0.45638278 -0.34059358
-0.34510717 0.43715516 -0.10364521 -0.45622265 -0.038340475 0.22183907 -0.19273472 -0.053598214
-0.24194193 0.012261677 0.43176672 -0.13580716 0.14793979 -0.14816742 -0.40566576 -0.0349403
0.3434697 0.18981299 0.4419872 -0.41984263 0.055357255 0.4194392 0.5065484 -0.12706016
-0.07193332 0.44326416 0.18369474 -0.21479604 -0.39096314 -0.17328514 -0.20973901 0.05803727

blocks.1.feedforward.0.bias f4 [40]
00000000: 5aaf cebd 5e1b a33e 3992 473e d333 cdbd
00000010: c0bd 10be fd16 cc3e 6fcb d4bd 8dcb 203c
00000020: a7ec ba3e 5908 cc3d a64d 833e 7a49 9cbd
00000030: 08ac 833e 0e9b e0be 56a8 55be ae3e 9d3e
00000040: d281 bbbe d5da a0be d75a 63bd c7f8 713d
00000050: d82c 223e 8db0 8fbe 14e4 01bf c28c 28bd
00000060: 092a b0be 9a5e e1be e5a9 a5be 39aa 1bbe
00000070: e7b6 243e affc a8be 4bcc 62be 1f0b 7fbe
00000080: bfce 7b3e 40ed c8be a818 c23d 2c83 573e
00000090: c0da f73e 8eb0 c9be 2947 643d 446f a03e
-0.100920394 0.31856817 0.19489373 -0.1001965 -0.14134884 0.3986129 -0.103903644 0.009814155
0.36508676 0.0996253 0.2564518 -0.07631202 0.25717187 -0.43868297 -0.20864996 0.30711883
-0.36622483 -0.31416956 -0.055506554 0.059075143 0.15837419 -0.28064385 -0.50738645 -0.041149862
-0.3440707 -0.44017488 -0.32356182 -0.15201654 0.16085397 -0.33005282 -0.22148244 -0.24906586
0.24590586 -0.39243507 0.09477359 0.21046132 0.4840908 -0.39392513 0.055731926 0.3133489

blocks.1.feedforward.3.weight f4 [4, 40]
00000000: 3507 0bbe 3ff3 303c b43c 203e 5d66 11be
00000010: 96dc 0abe 9dc2 1fbe 4251 46bd ad28 f73d
00000020: 9381 6e3c 8862 a6bd 00ad d8bd 6dd2 1a3e
00000030: 9fdf d3bd 7121 423d 4dbb 0cbe b8a6 cb3c
00000040: cb56 8f3d be70 d43d e7e3 62bc 196e b63d
00000050: c252 003d 99c4 6fbd eeba 103e e3bd a9bd
00000060: a712 e6bd 5133 1e3d 3528 cabd b4ad c7bd
00000070: 9a39 e9bd 0503 3bbc 8733 893d f148 e2bd
00000080: 9965 a53d 593e 193e d3e8 fa3d a165 033e
00000090: 8ae0 c03c c37a 2ebe 295e 133d 9c42 183d
000000a0: 0492 2ebd 2e3c d9bd 50a6 0c3e 7554 1cbe
000000b0: 444a cc3d 6bfc 1dbe ba3b 023e 7122 5cba
000000c0: 54c1 f3bd b7ca 8cbd 065c ddbb b48e 63ba
000000d0: fae9 10be 0df7 f5bd e860 e83d baf7 f0bd
000000e0: 0668 073d 4f05 253e 4697 123e d0a7 fe3d
000000f0: 0b03 053e 7781 21bd fa7b 013e 88ae f73d
00000100: ceb0 09bd bfe4 eb3d e24d 313d 2ab1 0fbd
00000110: 1ec7 1f3d e11d f0bd 1afc 973d 4147 3abc
00000120: 8da5 b33d 746e 163e 1a28 163c 1c39 1fbd
00000130: ff58 98bb 27fe 9f3d abf2 f5bd 16fc 18be
00000140: 4c20 ad3d 7a02 cdbd c46c 0d3e 8b07 e7bd
00000150: cf87 c43a a5b9 e33d 08cc e23d 37ac 83bb
00000160: 7529 803d fadc 00be e203 b1bc dac8 a9bd
00000170: 4b89 38bd da87 43bc 4fd7 d0bd c83b 273e
00000180: e3e0 093e 7e92 96bd b079 2b3e c6f7 8dbd
00000190: a17c 4b3c 9bd9 453d 091e fbbd 1c98 043c
000001a0: 7352 b73d b88f d13d f6ee 48ba c84a 4c3b
000001b0: 745d 80bd 64f0 e03d 08de 0cbd 17c2 f63d
000001c0: 05f5 3c3c fde9 543d 2600 0fbe 89ab 6a3b
000001d0: 2a5c f7bd 2718 46bd ed8c 1fbe e66d 243e
000001e0: c167 213e ecff dabd 2b79 06be 1156 bb3d
000001f0: f394 ccbd d559 da3d bd6e b43d 0ad4 f23d
00000200: 7806 8f3d c778 d33d 4eac 153e 81dd bbbd
00000210: 52a7 1cbd 866c bf3d 7dae f7bd 6644 e33d
00000220: d99f 7c3d cbd3 f0bd a8ed 073e 6d71 ce3d
00000230: 438f edbc 452b 8dbd 71ca 9ebd 87c2 933d
00000240: 98ac 213e 39f5 16be b5cc 17be 9429 ff3d
00000250: 3330 ddbc 0704 093e aa22 723d 43de 06be
00000260: 1ff7 9ebc 0bd4 7fbd 03ec c73d 7c84 5a3d
00000270: ff52 4bbd 2b6b da3a 3ceb c4bd 6c7c 313e
-0.13576968 0.010800182 0.15648156 -0.14199205 -0.1356071 -0.15601583 -0.048417337 0.12068305
0.01455726 -0.08124262 -0.10579872 0.15119334 -0.10345387 0.047395173 -0.13743325 0.024859771
0.06998976 0.10373066 -0.013848281 0.08907718 0.031328924 -0.0585371 0.14133808 -0.08288171
-0.112340264 0.038623158 -0.0987095 -0.09749928 -0.1138794 -0.011414294 0.06699281 -0.11049069
0.08076019 0.1496519 0.12251439 0.12831737 0.023544569 -0.17039017 0.03597847 0.0371729
-0.04261972 -0.106071815 0.13735318 -0.15266593 0.099751025 -0.15428321 0.12718096 -0.0008397466
-0.11902109 -0.06874602 -0.006755355 -0.0008680627 -0.14151755 -0.12010012 0.113466084 -0.11766
0.03305819 0.16115306 0.14315519 0.124343514 0.12989442 -0.039430108 0.1264495 0.12093836
-0.03361588 0.11518239 0.043287165 -0.035081066 0.039008252 -0.11724449 0.074211314 -0.011369527
0.08771811 0.14690572 0.009164834 -0.038872823 -0.004649281 0.078121476 -0.12009176 -0.14939913
0.08453426 -0.10010238 0.13811022 -0.112807356 0.0014994087 0.11119393 0.11074072 -0.0040183323
0.06257907 -0.12584296 -0.021608297 -0.082902625 -0.045052808 -0.011934245 -0.10197317 0.16331398
0.13464694 -0.0735216 0.16745639 -0.06932025 0.012419851 0.048303228 -0.12261588 0.008092906
0.08951273 0.1023249 -0.00076650025 0.0031172503 -0.06267825 0.10983351 -0.034391433 0.120487384
0.011533027 0.05198096 -0.139649 0.003580781 -0.12078126 -0.048362877 -0.15581103 0.16057548
0.15762235 -0.106933445 -0.1313216 0.09147275 -0.09989347 0.10661665 0.08810184 0.118568495
0.06983656 0.10325771 0.1461651 -0.09173108 -0.038245507 0.09346871 -0.12093828 0.1109703
0.06167588 -0.11759146 0.13274252 0.10080228 -0.028998977 -0.06893019 -0.077534564 0.072148375
0.15788496 -0.14741983 -0.14824183 0.12459102 -0.027000522 0.13380443 0.05911509 -0.13170724
-0.019404946 -0.06245808 0.097618125 0.053349003 -0.049639698 0.0016664019 -0.0961518 0.1733262

blocks.1.feedforward.3.bias f4 [4]
00000000: 005d 1cbe c4a2 00be cfaa 2f3d 651d 843d
-0.15269852 -0.1256209 0.042887505 0.06450919

blocks.2.ln1.weight f4 [4]
00000000: 9c46 7d3f 41de 813f 11ff 823f 1b2c 833f
0.98935866 1.0145952 1.023409 1.0247835

blocks.2.ln1.bias f4 [4]
00000000: 986b 9f3c 507b c23c 2ea4 563d acf0 2e3d
0.019460484 0.02374044 0.052402668 0.04270999

blocks.2.msa.w_q.weight f4 [4, 4]
00000000: 3a9e e3be 2c18 fabe 80cf febd d3e2 02bd
00000010: 5ee1 c2be 66ae d3be 3539 a5be 342f bcbe
00000020: e653 e73e 770f 76be 8790 953e a468 113e
00000030: cb5a 73be 4482 a43e 95f8 94be 9711 013f
-0.44456655 -0.48846567 -0.12441921 -0.031954598 -0.38062567 -0.41343993 -0.32270208 -0.36754763
0.45181197 -0.24029337 0.29211828 0.14200073 -0.23765104 0.32130635 -0.29095903 0.50417465

blocks.2.msa.w_k.weight f4 [4, 4]
00000000: c788 9cbe 5e17 e9be 6631 d13d cd98 20be
00000010: 8960 c63e f07e 1fbe a9af 973e 67e6 223d
00000020: 80b8 59be 45f1 023e 9f41 71bd af13 b43c
00000030: 5fa1 87be 3e8e 9cbd bf8a bbbd 0578 353e
-0.30573103 -0.4552564 0.102145 -0.15683289 0.38745525 -0.15575767 0.29626206 0.03977051
-0.21261787 0.1278735 -0.05890047 0.021982042 -0.26490304 -0.07644318 -0.09157323 0.17721565

blocks.2.msa.w_v.weight f4 [4, 4]
00000000: a006 debe 41d7 1dbe f360 5d3e f9e4 d63d
00000010: f3cd 16bd 5e48 a93e d7cb 943e b903 003f
00000020: a149 93be 6356 3b3e 36d6 11be fe03 233e
00000030: f98f e4be 63f2 0f3e a98f 8ebd 647b 0c3e
-0.4336443 -0.15414144 0.21619014 0.10492892 -0.036817502 0.33063024 0.29061767 0.5000568
-0.28767112 0.18294673 -0.14241871 0.15919492 -0.44641092 0.14057307 -0.06960995 0.13718945

blocks.2.msa.w_o.weight f4 [4, 4]
00000000: 2778 123e 641f 06bf b8ca bcbe f699 1f3e
00000010: 8b31 4d3e cc40 fabe e2a1 173e 5c21 c7bc
00000020: 410b f3bc 91e1 03bf df81 fcbd 4812 aa3e
00000030: c1f9 96be ffaa 53be f286 4d3e 27bf 273c
0.14303647 -0.5239165 -0.36873412 0.15586075 0.2003843 -0.4887756 0.14807847 -0.0243079
-0.029668452 -0.5151606 -0.123294584 0.33217072 -0.29487422 -0.20670699 0.20071009 0.010238445

blocks.2.msa.w_o.bias f4 [4]
00000000: fa24 6cbe ed1e 5abe 00f9 00be 9753 fe3e
-0.2306098 -0.2130086 -0.12594986 0.4967315

blocks.2.ln2.weight f4 [4]
00000000: 88b0 813f 4ffd 7c3f 8073 7e3f 78c4 7f3f
1.0131998 0.9882402 0.9939499 0.9990916

blocks.2.ln2.bias f4 [4]
00000000: b4c1 05bc 4382 cbbb 61fe 17bc 71df 82bb
-0.008163858 -0.0062105968 -0.009276957 -0.0039939214

blocks.2.feedforward.0.weight f4 [40, 4]
00000000: e110 61be 6ce2 84be 68f7 893c 5011 5f3d
00000010: 4ebc 193e 12c9 21be 45ef 8e3d e1fe a5be
00000020: edba a0be d473 23be 79cc b6be 9582 d1be
00000030: 054f 243e 282f fc3d b0df 1dbe ea78 a6be
00000040: 2818 c5be 62d4 8e3c c7be f13e ba71 153e
00000050: 56f6 5f3e 551c b63e 8e83 d1be 0293 afbe
00000060: 6a20 aabd 95e2 b23c 2750 2fbe 4e60 d73e
00000070: 01f1 a4be 18aa f33e c782 cb3e ebcc 69bd
00000080: e1ad 403e b558 443d e33c b0be 8b5c b83e
00000090: cc7e 25bd 51e5 76bc 6792 593e b996 bf3e
000000a0: b05a 023e 6945 e5be f036 ef3e e33b d33e
000000b0: 3f5c 6a3d 6918 3ebe cbb7 cf3e d6fa a9be
000000c0: 4e4e cf3d e15c 073e 67b4 7c3e 9074 c93e
000000d0: f85e c3be e6a3 ee3e b95b 6d3e e231 adbe
000000e0: e124 9bbe a2ae 0a3e 43ed 003e e403 243e
000000f0: a32b dc3d 54a9 bebe 4f18 783e 6d5a 413e
00000100: 0893 343e 5e8f df3e 3ee8 e0be ea17 a3be
00000110: ae49 9fbe 29e2 ba3e b6e7 cc3c 3279 f63d
00000120: 5055 7b3a 2f79 94bd 0fce f63d d3a4 e93e
00000130: 1969 3d3e daa7 c43e 8ec2 933e 767e c6be
00000140: 37fa c83e d71a b5be db95 fdbe 66db 7d3e
00000150: 6804 62be 2fde 8b3e 91d3 013e e509 24bc
00000160: 8b07 aa3e 2650 e13d 4e91 f53e 635c 4abe
00000170: 4592 90be 8947 46be ab11 d9be 37e5 df3d
00000180: 0193 e0be 99e5 c5bd 2f8c 61be 64e4 84be
00000190: f7bb 1c3e dcb9 e33e 759d 9ebd fc77 30be
000001a0: 7c4f c2be 5be5 7d3e 356a 87be e494 d13d
000001b0: f2b5 76be 52f9 5c3e 8ec8 d03d 0bbc 4abe
000001c0: c913 04be aeb2 c53e 4728 e6bd 2d28 153e
000001d0: ecbf c83e f53f ed3e 3bc4 80be 0c14 e0be
000001e0: 526a 323e dbc3 f73e ee3c 22be 150d bbbe
000001f0: ca2e 76be 54be 00bf e108 ebbe 6477 cabe
00000200: 0f90 c2be 3f31 e63c 9a18 9c3d c6a9 7d3d
00000210: 55c9 d03e 179d 753e a31b f8be 88f6 cfbe
00000220: a720 c63d 4fdf 90be c73c 5cbe dacd 243e
00000230: 07e5 e73e 7b2e eb3e 9eba 9b3d ba8f eabe
00000240: 381e 5dbe 6b0a f4be 3bf5 a6be 3bd5 d5be
00000250: 453d 09bd b671 f23d 66a8 43be 55c8 f63e
00000260: 140a 033f 7631 713e f4e3 7e3d 0dae 8e3c
00000270: cafc b73e 0e0f 96bd ce66 e8be ab91 94be
-0.21979095 -0.25953996 0.016841605 0.05445987 0.15013239 -0.15799358 0.06979231 -0.3242102
-0.31392613 -0.15962154 -0.35702875 -0.4091994 0.16045769 0.12313682 -0.15417361 -0.32514125
-0.38494992 0.017435256 0.47215864 0.14594164 0.21871313 0.3556849 -0.4092068 -0.34291846
-0.08306964 0.021836558 -0.1712042 0.42065662 -0.3221512 0.4759071 0.39748213 -0.05708019
0.1881633 0.04793616 -0.34421453 0.36008105 -0.040404126 -0.015069322 0.21247254 0.3741968
0.12729907 -0.44779518 0.467216 0.41256627 0.05721688 -0.18563999 0.4056991 -0.33199185
0.10122357 0.13219024 0.24678193 0.39346743 -0.38158393 0.4660942 0.2317952 -0.3382712
-0.30301574 0.1354318 0.12590508 0.16017109 0.107505105 -0.37238562 0.24228023 0.18882151
0.17634213 0.43664068 -0.43927187 -0.31854182 -0.311109 0.36500672 0.025012832 0.12034835
0.00095876027 -0.072496764 0.12051021 0.45633563 0.18497123 0.3840931 0.2885937 -0.38768357
0.392534 -0.3537204 -0.49528393 0.24790725 -0.22071993 0.2731795 0.12678362 -0.010012125
0.3320888 0.11001615 0.4796242 -0.19761805 -0.28236595 -0.19363226 -0.42396292 0.10932391
-0.43862155 -0.09662933 -0.22026132 -0.25955498 0.15306078 0.44477737 -0.07744876 -0.1723327
-0.37951267 0.24794523 -0.26448217 0.10233477 -0.24092844 0.21579483 0.10194503 -0.19798295
-0.12898172 0.38612884 -0.11238151 0.14566107 0.39208925 0.46337858 -0.25149712 -0.43765295
0.1742337 0.48391613 -0.15843555 -0.36533418 -0.24041286 -0.5029042 -0.45905212 -0.39544213
-0.38000533 0.028099654 0.0762188 0.061929487 0.40778604 0.23985706 -0.48458585 -0.40617776
0.09674197 -0.2829537 -0.2150756 0.16094151 0.45291921 0.459339 0.07603954 -0.4581278
-0.21593559 -0.47664198 -0.3260897 -0.41764244 -0.033505697 0.11838095 -0.19107208 0.48199716
0.51187253 0.23554024 0.06222911 0.017416978 0.3593505 -0.0732709 -0.45390934 -0.29017386

blocks.2.feedforward.0.bias f4 [40]
00000000: d194 3e3e b06d 13be a116 f03e 6c2c d5be
00000010: a8f3 99be b646 b2be 35b9 923e 7523 40be
00000020: d24f a73e 730d ba3c 2257 12be a5ef d5be
00000030: 0024 f13e f8e6 ef3e 1917 04be 4d96 943e
00000040: ea84 8e3e 3223 b7be ce2e c63e 085c 56bd
00000050: e062 6cbd 065b 4b3d ee7a 4d3e 76b6 b23e
00000060: bcb6 833d 9480 30be ff89 803e 2434 8dbe
00000070: 7b5b 223e 26f9 e3be c81d 753e 14cf edbe
00000080: c49c 3abe fe5a 62be b66f 9a3e 5aa5 f93e
00000090: 22f3 1cbe 24f6 ea3e a37b ce3e c79b cf3e
0.18611456 -0.14397311 0.46892264 -0.41635454 -0.30068707 -0.34819573 0.28656927 -0.18763526
0.32678086 0.022711491 -0.14291051 -0.41784397 0.47097778 0.46855903 -0.12899436 0.2902092
0.2783578 -0.3576904 0.38707584 -0.05233386 -0.057711482 0.049647354 0.20066425 0.34904832
0.06431338 -0.17236549 0.25105283 -0.27578843 0.1585521 -0.44526023 0.23937142 -0.4644705
-0.18223864 -0.22105023 0.30163354 0.48758966 -0.15327123 0.45890915 0.40328702 0.40548536

blocks.2.feedforward.3.weight f4 [4, 40]
00000000: 7127 c8bd 0c28 cf3d ed61 a33b f8a9 5abd
00000010: a4b3 843c 7c3c 183e 4b78 00be 3976 a93d
00000020: 7111 18bd 7c43 13bb 626e d9bd 4495 ac3d
00000030: 0183 cbbc 313b 93bd 8e93 193c e2a2 d9bd
00000040: 4cd3 1c3d c398 fc3d 8172 00be 580b 41bd
00000050: 80ef 13be 1da8 94bd ec97 253e 5728 753d
00000060: 33f5 9fbd 752f 61bd 929d ddbd f8c2 a73d
00000070: 3a13 94bd 1c9d 243e 7c2a eb3d acbc 3dbd
00000080: ead0 8e3d c276 c23d 4524 c63b 2ef5 af3d
00000090: db78 acbd f15f bb3d 6c91 1fbe fe77 d63d
000000a0: fc17 893c e752 0abd 4d35 0dbc c04d cb3d
000000b0: 9c97 d8bc 69b1 063e eb77 823d 1139 a33d
000000c0: c175 bfbd a0f8 20be 187c 3ebd a958 ab3d
000000d0: c568 023c 2f81 97bd 70fc fdbc cc33 fcbc
000000e0: f28e 8bbd e7ef 003e e276 be3d a60f 0fbd
000000f0: 2550 ae3d 0dca 383d f21d 87bd a6e1 babd
00000100: 21dd f43d deb3 693c 1503 f83d 7dbd 183d
00000110: 31dc 9fbd 9a70 52bd bb02 02be 4a9e 06bd
00000120: 3567 92bd cdeb 06be dfb6 7f3c 1672 fc3d
00000130: 3158 12be fa5d 013d 94d3 78bd 4504 0c3d
00000140: 7f48 363d 8e23 773d 0956 a93d 081d 91bc
00000150: b080 2dbe 5f33 b8bd 45fb a03d c917 f53d
00000160: 504d 27be 2d74 123d 8c30 463c d606 ef3d
00000170: 5d48 febb c5e7 d3bd 4af3 87bd eda0 83bd
00000180: 3d71 da3d 9c62 d73d b745 e03d dd3c cb3d
00000190: 8ab5 323e 128c 28bd 0efb 2c3e 6b80 05be
000001a0: 9577 cabd 10d2 c73d 9335 80bd cee0 18ba
000001b0: a9da 633d d742 f4bd e5c7 15be 2c05 943d
000001c0: 18c0 3fbe 6f2f 193e 506f 9c3d d147 e4bd
000001d0: f42e ffbc ee20 32be 0935 2f3e 233c a13c
000001e0: ce22 163c f23f a23d 2668 edbd 201d 293e
000001f0: a39a e9bd e8a6 99bd 6534 07be dc15 1cbc
00000200: 507b 0cbe 823f b6bd 3f49 bd3c b371 f03d
00000210: b1cf 0f3e 1d48 32bd 72f5 873c 7175 d53d
00000220: d3c9 3ebd 6aab 49bd b1ff 043e 840c 1e3e
00000230: 8522 debc 0c85 a23d a37b 1a3e 66bd de3c
00000240: 357f 1b3e 37c4 053e f512 15be 05cf 4f3b
00000250: c5b5 1d3b cc14 e2bd 47cc 763d 7684 03bd
00000260: 3763 2c3d d38b bd3d e704 e0b9 02ca 943d
00000270: d03c 86bc 446b 10bd ee24 ad3d f2de febb
-0.09773148 0.1011506 0.004986039 -0.05338475 0.01619894 0.14866823 -0.12545888 0.08274502
-0.03712601 -0.0022470644 -0.10616757 0.08426908 -0.024842741 -0.07189024 0.009373559 -0.106267706
0.038287446 0.123338245 -0.1254368 -0.04712996 -0.14446831 -0.072586276 0.16171235 0.059852924
-0.0781044 -0.0549769 -0.1082107 0.08191484 -0.0723023 0.16075557 0.114827126 -0.04632251
0.06973441 0.094953075 0.006046804 0.08591686 -0.08421489 0.09149159 -0.15582818 0.104721054
0.01673507 -0.033770468 -0.008618665 0.09926939 -0.02643948 0.13153614 0.06370529 0.07969869
-0.09348632 -0.15719843 -0.046505064 0.0836652 0.007959549 -0.07397687 -0.03100416 -0.030786417
-0.06814374 0.12591515 0.09300019 -0.034927033 0.0851138 0.045114566 -0.065975085 -0.0912507
0.119562395 0.014264075 0.12109963 0.037290085 -0.0780567 -0.051376916 -0.12696354 -0.0328658
-0.071485914 -0.13175888 0.015607565 0.12326448 -0.14291455 0.031583764 -0.06074865 0.03418376
0.04450273 0.060336642 0.08268363 -0.017714038 -0.16943622 -0.08994173 0.07860426 0.11967427
-0.16338086 0.035755325 0.012096535 0.11671226 -0.007760091 -0.10346941 -0.066382006 -0.064271785
0.1066613 0.10516855 0.10950797 0.09923718 0.17452064 -0.041149206 0.16892645 -0.13037269
-0.0988609 0.09756863 -0.062602185 -0.00058318384 0.055628452 -0.11926811 -0.14627035 0.07227549
-0.18725622 0.149595 0.07638419 -0.111465104 -0.031150319 -0.17395374 0.17110075 0.019681996
0.0091635715 0.07922353 -0.1159213 0.16515017 -0.11406448 -0.07502538 -0.1320358 -0.009526696
-0.13718915 -0.08898832 0.023106216 0.117404364 0.14044072 -0.043525804 0.01659653 0.10422791
-0.046579193 -0.04923574 0.12988164 0.15434462 -0.02711607 0.07935533 0.15086226 0.027189922
0.15185244 0.13063131 -0.14558013 0.0031709087 0.0024064642 -0.11039123 0.060253408 -0.032108746
0.042086806 0.09255185 -0.00042728262 0.072650924 -0.01638642 -0.035258546 0.084543094 -0.007778042

blocks.2.feedforward.3.bias f4 [4]
00000000: 733f ebbd 446f 1abd 3134 4c3c 6356 a63d
-0.11486711 -0.037703767 0.012463615 0.08121946

blocks.3.ln1.weight f4 [4]
00000000: b3a5 7f3f 44b2 813f a2dd 803f 9046 823f
0.9986221 1.0132527 1.0067637 1.0177784

blocks.3.ln1.bias f4 [4]
00000000: ebda 8b3b bf94 a3bc bc8b b0bc 0d3d 163c
0.0042680404 -0.019968389 -0.021551006 0.009169829

blocks.3.msa.w_q.weight f4 [4, 4]
00000000: 87fc ef3e e169 40be 8e80 ffbe 9216 f13e
00000010: 87e7 d23e b4ae 853e b13e 70bd 6dc5 12be
00000020: f769 c33d e2e6 953e 7927 393e f075 d8be
00000030: 377e 83be 0e43 60be 8fe4 c3be 676e 723e
0.4687235 -0.1879039 -0.49902767 0.47087532 0.41192266 0.2610985 -0.058653537 -0.14333124
0.095416956 0.29277712 0.18081464 -0.4227748 -0.25682232 -0.2190058 -0.38260314 0.23674928

blocks.3.msa.w_k.weight f4 [4, 4]
00000000: 6ed4 123d 7b2a 823e 1bff a6be 6fe7 93be
00000010: 0945 7d3e c393 b33d 7076 b93e 86dc aa3e
00000020: 6a85 aebd fc9b 1dbe a2c7 90bb dd07 093d
00000030: 14d8 23be 1457 acbe c557 debc af60 d33d
0.03584712 0.25423035 -0.32616505 -0.28887507 0.24733366 0.08768418 0.36223173 0.3337137
-0.085215405 -0.15391535 -0.0044183293 0.033454765 -0.16000396 -0.33660185 -0.027141461 0.10321175

blocks.3.msa.w_v.weight f4 [4, 4]
00000000: d1ed e2bd dbe6 f2be 9854 8fbe d1ea bf3e
00000010: 1a2c b13e 1d09 403d 0e2a acbe 5dbc 573e
00000020: 4639 853e fd3b adbd c036 00be d941 9dbe
00000030: 610c 63bd 5fbb 6b3e f544 5d3c 0183 68be
-0.11080516 -0.47441754 -0.27994227 0.37483838 0.3460396 0.04688369 -0.33625835 0.21067949
0.2602026 -0.084587075 -0.12520885 -0.307143 -0.055431727 0.23020695 0.01350521 -0.22706224

blocks.3.msa.w_o.weight f4 [4, 4]
00000000: fa38 af3e 18f8 8bbe 9351 e1be 7b43 c93d
00000010: 194e 97be 659c efbc 6c7e 8a3e aa44 fe3e
00000020: cf7c ccbe 8b34 04be ca2b c73d e805 babd
00000030: a656 eb3c 1159 c13e c6c3 c8bd ecd0 833e
0.34223157 -0.27337718 -0.4400755 0.09827324 -0.2955177 -0.02924938 0.27049577 0.49661762
-0.3993897 -0.12910669 0.09725149 -0.09083158 0.02872784 0.37763265 -0.09802966 0.25745332

blocks.3.msa.w_o.bias f4 [4]
00000000: 61ab 26be 7c94 2d3e dedc a93d 6e0d 5abe
-0.16276313 0.16951174 0.0829408 -0.21294186

blocks.3.ln2.weight f4 [4]
00000000: b7dc 813f 04de 7e3f efd6 7d3f 7230 803f
1.0145482 0.9955752 0.9915609 1.0014784

blocks.3.ln2.bias f4 [4]
00000000: 7aef 30bc 5da0 93bb c7e9 b5bb e7c7 273b
-0.010799283 -0.004505201 -0.00555155 0.0025601329
